HW12_RAG/lora_20vt_lr0.05_ep12_bs4/adapter_model.safetensors (safetensors, 82040 bytes, 1 tensors)

prompt_embeddings f4 [20, 1024]
-0.32509312 -0.28117907 0.21781246 -0.31921935 -0.26413146 0.2965213 0.20708892 -0.5313717
0.32629216 -0.21695872 0.3082782 -0.21261671 0.26807314 0.026974205 -0.036099136 -0.31199503
-0.32807696 -0.31496865 -0.048303228 0.22015734 0.3710084 -0.1267768 0.29653558 -0.24335758
-0.19940197 -0.22265212 0.28036842 -0.2629257 -0.26863727 0.30263495 0.31386146 0.3702359
0.21803738 0.26942977 0.21404552 -0.25950328 -0.21082176 -0.25688818 0.29462516 -0.30819046
0.2558256 0.20374298 -0.22699906 -0.2617474 -0.31928983 0.26879635 -0.30299866 -0.29172766
0.27920026 0.31970903 -0.36025855 -0.28950053 -0.16637625 -0.33744752 0.2825099 0.27804664
-0.23455818 -0.34965485 -0.4610281 -0.2552815 -0.26443595 0.22160426 -0.40182006 0.19722332
0.36400345 -0.20410757 -0.153527 0.4549228 0.5433474 -0.25940442 -0.24543317 0.44252214
0.21731186 -0.33911973 0.2675066 -0.32098237 -0.15541632 -0.13577214 0.36900064 0.16573347
0.41959152 -0.13218184 -0.3443168 -0.19805303 0.33280915 0.36524484 0.124268934 0.01292494
-0.36280167 -0.27576563 0.30656266 -0.35302028 0.33286098 0.41737163 0.32222998 0.3860932
0.24073079 -0.27517685 0.21925828 0.06459175 0.4117536 0.36317155 0.21121891 0.38500184
-0.23843814 0.32026318 -0.20295209 0.23170894 0.15756156 0.2524613 0.28807458 0.37175
-0.2695914 0.28906727 -0.22848853 -0.33993623 0.2888093 -0.26365644 0.2476684 0.25992706
0.12808402 -0.22371998 0.136562 -0.26698187 -0.30076852 0.28167003 0.21523573 0.26516175
0.2669444 -0.19548006 0.2142866 -0.27768728 0.22678962 0.29884222 0.27327126 0.111789614
0.23781306 -0.38504454 0.31097716 -0.26563707 0.28818628 0.23103999 -0.2695574 0.31411576
0.3426421 0.33928895 0.26739678 -0.34267852 0.27324817 -0.20398377 -0.27050093 -0.21744859
-0.19122182 0.08148325 0.19664018 -0.30308393 -0.28425387 -0.29414192 0.25918204 -0.10284346
-0.3405652 -0.28649348 0.27446836 0.2529465 0.31301865 0.1960903 0.22668423 0.046509217
-0.12839633 0.009797804 -0.28636613 -0.27797234 -0.3111625 0.24217314 0.25379625 -0.0069346884
0.34242555 -0.39524755 0.2992139 0.46454516 -0.24980105 0.2497305 0.16851926 0.2956363
-0.3963306 -0.24627832 -0.2992856 -0.27264744 -0.3388162 -0.33411545 -0.3710233 0.21103
0.30163887 -0.26505965 -0.5412723 -0.45088872 0.1688868 0.20305197 0.27026236 0.24289468
-0.22017041 -0.21674341 0.32561782 -0.41380897 0.32230523 0.27475572 -0.16342337 0.0042033517
-0.35486823 -0.04005613 0.16896456 0.33843735 0.3351127 -0.22285984 -0.20208299 -0.29398695
0.1236698 -0.244161 0.24772897 -0.35001954 0.21636292 -0.2954955 -0.35014567 0.27522728
0.22346455 -0.3105853 0.2927551 0.032316208 -0.27062133 0.38383648 -0.33945572 -0.29063496
0.16109852 -0.3216579 -0.023631433 -0.020374265 0.27279404 0.22578155 -0.32801482 0.20788772
0.40139163 -0.2631089 -0.23643732 0.23256826 0.2253658 -0.1353053 0.53000635 -0.45521766
-0.2406901 0.64574325 -0.5749185 0.24319229 -0.13201088 0.23100275 -0.31579572 0.11912984
00000000: 9b72 a6be b4f6 8fbe 3b0a 5f3e b870 a3be
00000010: 3d3c 87be a4d1 973e 1e0f 543e fa07 08bf
00000020: c40f a73e 6d2a 5ebe a4d6 9d3e 32b8 59be
00000030: e240 893e 02f9 dc3c b0dc 13bd d0bd 9fbe
00000040: b4f9 a7be 9243 a1be 9bd9 45bd ed70 613e
00000050: d0f4 bd3e c7d1 01be 83d3 973e bb32 79be
00000060: 0830 4cbe ebfe 63be 738c 8f3e 339e 86be
00000070: d38a 89be f8f2 9a3e 73b2 a03e 8f8f bd3e
00000080: 3145 5f3e b3f2 893e c02e 5b3e 9ddd 84be
00000090: a9e1 57be d986 83be 1cd9 963e 24cb 9dbe
000000a0: 93fb 823e 00a2 503e 7172 68be c103 86be
000000b0: f579 a3be ad9f 893e a422 9bbe 545d 95be
000000c0: 56f3 8e3e e7b0 a33e cf73 b8be 6a39 94be
000000d0: 895e 2abe ecc5 acbe 23a5 903e 215c 8e3e
000000e0: 0530 70be f605 b3be e00b ecbe 42b4 82be
000000f0: 2664 87be 3aec 623e 5cbb cdbe e9f4 493e
00000100: a95e ba3e 9301 51be 2f36 1dbe a4eb e83e
00000110: d118 0b3f a8d0 84be d552 7bbe 4392 e23e
00000120: 0087 5e3e 1aa1 adbe a0f6 883e cd57 a4be
00000130: 7525 1fbe da07 0bbe a7ed bc3e 09b6 293e
00000140: b3d4 d63e ad5a 07be 4b4a b0be 6ace 4abe
00000150: f665 aa3e 5f01 bb3e b680 fe3d 21c3 533c
00000160: 24c1 b9be 2731 8dbe c8f5 9c3e 13bf b4be
00000170: c16c aa3e bcb1 d53e 54fb a43e 02ae c53e
00000180: 2282 763e fbe3 8cbe 3e85 603e ae48 843d
00000190: 5ed1 d23e 9ff1 b93e c549 583e f61e c53e
000001a0: 2129 74be 89f9 a33e acd2 4fbe 1c45 6d3e
000001b0: d157 213e 9c42 813e 837e 933e 0456 be3e
000001c0: e207 8abe a000 943e e6f8 69be 1f0c aebe
000001d0: d0de 933e fafd 86be c99c 7d3e 2915 853e
000001e0: 7528 033e da16 65be e9d6 0b3e d9b1 88be
000001f0: 55fe 99be 0e37 903e c166 5c3e 48c3 873e
00000200: f0ac 883e ed2b 48be f26d 5b3e 072d 8ebe
00000210: 8a3b 683e d901 993e 36ea 8b3e f4f1 e43d
00000220: 4485 733e 8f24 c5be 6638 9f3e 9501 88be
00000230: 278d 933e bf95 6c3e 6d03 8abe c8d3 a03e
00000240: c96e af3e 48b7 ad3e 3be8 883e 8f73 afbe
00000250: 2fe7 8b3e 1fe1 50be 197f 8abe d8aa 5ebe
00000260: a7cf 43be b1e0 a63d 0b5c 493e d12d 9bbe
00000270: b989 91be c599 96be 82b3 843e 989f d2bd
00000280: 905e aebe 46af 92be 1e87 8c3e 3482 813e
00000290: fb43 a03e e5cb 483e e91f 683e 7380 3e3d
000002a0: 547a 03be f886 203c 959e 92be 6452 8ebe
000002b0: b150 9fbe 3cfc 773e 95f1 813e 623c e3bb
000002c0: 6752 af3e e35d cabe 9032 993e ddd8 ed3e
000002d0: d9cb 7fbe 5ab9 7f3e 5090 2c3e a45d 973e
000002e0: d8eb cabe 6230 7cbe f63b 99be 7298 8bbe
000002f0: 5179 adbe 2e11 abbe c4f6 bdbe 4018 583e
00000300: 6970 9a3e e6b5 87be d290 0abf e3da e6be
00000310: a9f0 2c3e dbec 4f3e d45f 8a3e 62b9 783e
00000320: 5a74 61be fcf1 5dbe 61b7 a63e c5de d3be
00000330: 3105 a53e c8ac 8c3e 7558 27be 45bc 893b
00000340: 4ab1 b5be e611 24bd 0c05 2d3e a947 ad3e
00000350: e493 ab3e 5f35 64be d8ee 4ebe 7585 96be
00000360: 9846 fd3d 5705 7abe aaac 7d3e c335 b3be
00000370: 3e8e 5d3e 304b 97be 4b46 b3be 97ea 8c3e
00000380: e4d3 643e 0905 9fbe ffe3 953e 005e 043d
00000390: e18e 8abe 3786 c43e 24cd adbe 1bce 94be
000003a0: 03f7 243e 58b0 a4be b596 c1bc eee7 a6bc
000003b0: a9ab 8b3e 4733 673e 8ff1 a7be 85e0 543e
000003c0: 3483 cd3e 36b6 86be a01c 72be 6026 6e3e
000003d0: 4bc6 663e 798d 0abe 7fae 073f 4a12 e9be
000003e0: 7777 76be 6e4f 253f dc2d 13bf 6607 793e
000003f0: dc2d 07be fc8b 6c3e faaf a1be 58fa f33d
