HW12_RAG/lora_20vt_lr0.02_ep12_bs32/adapter_model.safetensors (safetensors, 82040 bytes, 1 tensors)

prompt_embeddings f4 [20, 1024]
000000 7e ec 06 be 7d 69 17 be b6 81 db 3d f7 b3 f8 bd
       -0.13176152 -0.14786334 0.107181 -0.121437006
000010 c9 37 0f be 55 31 0a 3e af 3d 4c bd 39 1c e1 3d
       -0.13986124 0.13495381 -0.049863514 0.10991711
000020 2c fc f1 3d 6f 4c e9 bd cd f0 a1 bd c1 de d9 bd
       0.11815676 -0.11391532 -0.07907257 -0.1063819
000030 52 5e ad bd f2 6d f2 3d 12 c4 83 bd 90 b7 31 be
       -0.08465256 0.11837377 -0.06433882 -0.1735518
000040 2f 7c 6c 3d d0 a6 f0 bd 23 16 01 3e a2 ad 02 3e
       0.05773562 -0.11750567 0.126061 0.12761548
000050 e1 e9 32 bd 86 09 ff bd 68 8f f4 3d da 1a 2b be
       -0.043680076 -0.12452988 0.11941415 -0.16709462
000060 d9 4d 93 bc 13 07 01 be ba bf 86 bd 8f cf ab 3d
       -0.017981457 -0.12600355 -0.06579538 0.08389198
000070 92 af c1 bd 56 53 4a bd 19 62 8c bd 3d 2a 72 bd
       -0.094573155 -0.04939588 -0.06854648 -0.059122313
000080 84 77 e0 3d dd 39 9f bd 64 dc b5 bd 33 9f 3d be
       0.10960296 -0.077747084 -0.08879927 -0.18517761
000090 da 87 b1 bd 48 56 92 3d 34 52 a9 bd 99 44 fe 3d
       -0.0866849 0.07145363 -0.08267632 0.12415428
0000a0 0e f8 03 3e 9a 0b e0 3d ff 30 41 3e 1a 30 fd bd
       0.12887594 0.10939713 0.18866347 -0.1236269
0000b0 54 2d da 3d 1d 50 f0 3d f3 5e 15 be 33 31 93 3d
       0.10653177 0.117340304 -0.14587002 0.071871184
0000c0 82 ea 9c bd c7 0f ef 3d aa 49 98 bd 42 32 94 3d
       -0.07661916 0.11672931 -0.07435925 0.072361484
0000d0 ae 81 0b be b1 84 92 3d 5a 42 fc 3d 19 34 fe 3d
       -0.13623688 0.07154215 0.12317343 0.124122806
0000e0 35 74 42 3d 8c 49 80 3d 39 ff 9b 3d 2b 42 0e be
       0.047474105 0.06264028 0.07617039 -0.13892429
0000f0 ef 7c ea bd e6 3f a7 bd e4 2e d4 bd 13 2a 0b be
       -0.114496104 -0.081664845 -0.10360506 -0.13590269
000100 5e 7e 1c 3e 09 b8 9c 3d 04 e4 d2 bd 11 19 c5 bd
       0.1528258 0.076522894 -0.10297397 -0.09623922
000110 df b5 18 bc c1 24 a5 3d 9c 83 a3 3d 6f 9e e5 bd
       -0.009320705 0.08063651 0.07984087 -0.112118594
000120 a6 10 6a bd 8d 47 4f be 3c 4d eb 3d e1 13 ae 3d
       -0.057144783 -0.20242138 0.11489341 0.08499885
000130 58 b9 df 3d a7 f6 bb 3d 61 3e 9a bd 95 14 0d 3e
       0.109240234 0.091779046 -0.07531429 0.13777383
000140 06 71 00 3e 19 7b b3 3d 43 ca 75 3d af 86 98 3d
       0.12543115 0.087637134 0.060007345 0.07447564
000150 49 f5 8f bd 8a 46 96 bd 66 41 d2 3d 16 e7 fb 3d
       -0.07029206 -0.07337673 0.1026638 0.122999355
000160 7a 8d a9 3d da 44 07 be f6 c1 c0 3d 45 76 2b 3d
       0.08278938 -0.13209859 0.09411995 0.041860837
000170 fb 7c 7b bd 74 b7 da 3d c7 69 ea 3d 1b 06 9a 3d
       -0.061398488 0.10679522 0.11445957 0.07520696
000180 94 e2 d8 bd 17 71 03 be 7d 71 e9 bd 56 99 8f bd
       -0.10590091 -0.12836109 -0.11398599 -0.070116684
000190 3c e0 00 be e6 64 07 3e 94 29 cc 3d 66 70 9c bd
       -0.12585539 0.13222083 0.09968868 -0.07638626
0001a0 32 45 99 3d da 7d c8 bb 29 30 8f 3d 1f e8 ea 3d
       0.07483901 -0.0061185183 0.06991608 0.11470055
0001b0 5f 5f 08 3e 3f 64 eb 3d d8 61 ed 3d 0f a2 02 3e
       0.13317631 0.1149373 0.11590928 0.12757133
0001c0 60 bf 15 be c4 7b bd bd 4b 5a f4 bd 29 b0 21 be
       -0.14623785 -0.09252122 -0.119312845 -0.15789856
0001d0 a3 40 cd bd 5b ca ea bd 5c c8 f5 3d 36 ba 09 3e
       -0.10022094 -0.114643775 0.12001106 0.1344994
0001e0 e5 a5 c2 3d 50 fe 07 be 19 71 8a bd 38 80 e6 bd
       0.09504298 -0.13280606 -0.06759853 -0.112549245
0001f0 65 3c 05 3d e6 4d 96 bd ac 81 41 bd 22 8d 03 3e
       0.0325283 -0.07339077 -0.047242805 0.12846807
000200 1f 52 d7 3d 2a 07 f4 bd 48 41 ef 3d 3d 69 e8 bd
       0.1051371 -0.11915429 0.11682373 -0.113481976
000210 07 52 0d 3e 7e 07 0c 3e cf 73 0d 3e b8 9b f7 3d
       0.13800822 0.13674733 0.13813709 0.12090248
000220 e7 01 b0 bd 3a e4 87 3d c7 17 88 bd c1 36 b8 3d
       -0.08594113 0.06635328 -0.0664516 0.089948185
000230 26 a1 03 3e a5 49 0d 3e 08 41 12 be fb c7 88 bd
       0.12854442 0.13797624 -0.1428262 -0.06678768
000240 12 06 af bd 98 70 09 3e 46 a7 00 3e 3c 35 9e 3c
       -0.0854608 0.13421857 0.1256381 0.019312494
000250 2b e2 f6 3d dc 74 a9 3d 85 0c a9 3d 05 92 98 3d
       0.12054857 0.08274242 0.08254341 0.07449726
000260 a1 7b 02 be 63 38 a7 bd 22 7e 3b be 2c af fb bd
       -0.12742473 -0.08165052 -0.18309835 -0.12289271
000270 a7 b0 86 3d 43 66 03 3d bc 2b 85 3d 93 d2 ee 3d
       0.065766625 0.032079946 0.06502482 0.116612576
000280 cf f2 d4 3d 03 78 8c 3d 11 65 aa bd 08 92 f1 3d
       0.103978746 0.06858828 -0.08320058 0.117954314
000290 2d ea 23 3e 3f 05 67 bd 13 e7 35 bd 3f c7 09 be
       0.160073 -0.056401487 -0.044409823 -0.13454913
0002a0 b4 87 f1 bd 0c a8 8b bd 39 b5 f0 bd 16 93 9f 3d
       -0.117934614 -0.06819162 -0.117533155 0.07791726
0002b0 d2 ab 08 be 96 35 f0 3d 88 1f c2 3d 58 12 d3 bd
       -0.13346794 0.11728971 0.0947867 -0.10306233
0002c0 d8 dd be 3c ba 4e 96 3d 3a 6d c4 bd 43 00 99 bd
       0.023299143 0.07339235 -0.09591146 -0.07470753
0002d0 7c 18 f3 bd 0c 89 03 3e 02 9e c9 3d 93 f5 04 3e
       -0.118699044 0.12845248 0.09844591 0.12984304
0002e0 a0 63 c8 3d 3a 25 a0 3d e7 f9 b0 3d 87 16 f4 bd
       0.09784627 0.078196004 0.08641415 -0.11918359
0002f0 8a 03 27 be 43 e3 fd bd dc 28 fe bd df e4 21 3e
       -0.16309944 -0.12396862 -0.12410137 0.15809964
000300 9d 0f 02 3e 30 fb f2 bd f4 3c a0 bd 5f f6 96 bd
       0.12701268 -0.118643165 -0.07824126 -0.0737121
000310 e6 1b a4 bd 4a e0 af 3d 28 79 cd 3d b0 18 8d bd
       -0.08013134 0.085877016 0.10032874 -0.068894744
000320 56 ab a5 3d 0c 72 9a 3d 5c be 65 bd 02 b0 de bd
       0.0808932 0.07541284 -0.056089744 -0.108734146
000330 80 8e 09 3e 65 20 05 3e f1 ba dd bd c1 b9 9e bd
       0.13433266 0.13000639 -0.10826672 -0.077502735
000340 ff 1f 77 bd 85 e7 3a bd 28 ee 95 bd bf c6 5c bd
       -0.06033325 -0.04563095 -0.07320815 -0.053900477
000350 5d e9 86 bd ae 76 a4 3d 2e 4c eb bd a9 df 01 be
       -0.06587479 0.08030449 -0.114891395 -0.12682976
000360 5b 75 d4 3d 6d 1a 05 be 44 a9 a0 bd a5 e8 8a bd
       0.10373946 -0.12998362 -0.07844785 -0.06782655
000370 96 28 9e bd d7 2d 56 3d cd 5b 97 3d 62 82 df 3d
       -0.07722585 0.05228981 0.073905565 0.109135404
000380 c2 ae ff 3d ec 34 c7 3d cd 1c 93 bd 90 d9 c6 3d
       0.12484504 0.09726891 -0.07183228 0.097094655
000390 66 58 dc bd d4 4d 07 3e 38 f1 8e bd 55 9b 03 be
       -0.10759048 0.13213283 -0.069796026 -0.12852223
0003a0 1a cc ef bd 55 3c b1 3d 22 b6 b7 bd 3a c7 a3 3d
       -0.11708851 0.086540855 -0.08970286 0.07996984
0003b0 45 3c 81 bd 9f 9a 40 bd af 0e bc 3d 35 f2 47 bd
       -0.063103236 -0.04702246 0.09182488 -0.04881497
0003c0 1a 9d 91 bd 6d df 98 3d 9f e1 a9 3d b2 22 09 3e
       -0.07110043 0.0746449 0.08294987 0.13392141
0003d0 94 54 f2 3d 63 5f a8 3d 97 8a eb bd da 4c 92 3d
       0.11832538 0.082213186 -0.11501043 0.071435645
0003e0 3c d9 f7 bd 35 8b ce bd 36 15 b6 3d 3a cf 0a 3e
       -0.12101981 -0.100851454 0.088907644 0.13555613
0003f0 c3 6b f7 bd 94 38 00 3e 03 06 e4 bd 3d 50 9f 3d
       -0.12081101 0.12521583 -0.11133959 0.07778976
