HW6_LSTM/state_dict.pt (torch, 504802 bytes, 18 tensors)

model.h0-0.weight f4 [64, 4]
00000000: 54e9 a63c 72d1 433e 7eb0 f4be 4df1 82be
00000010: 57ec e13e 9807 8e3e 0c6c 873e 93e9 fbbd
00000020: 4ed1 74bd d07a fb3e cd62 2b3e 84bf 02bf
00000030: 256a a1be b743 a13e b0d2 573e 199f c23d
00000040: 7d2e 68be 0d92 1b3e 8552 ea3b 7c8b e4bc
00000050: 9cde 86be ff04 f3be eca5 933e c685 bf3e
00000060: bd0d 0fbe bdff 02bf d4d4 ee3e 3502 87be
00000070: 9e1d f7be d13e a0be 13f9 bbbc 865e fe3e
00000080: fe9e 9abe c064 033f 33c1 26be d92e b03e
00000090: b3fa 463e 4943 d23d c7cf ca3e 8511 28be
000000a0: 99a3 e53e dd7b c23e 3225 dc3e ff1a 2abe
000000b0: 9cb9 c6be 3bbf 793e 0dd5 a7be cafc a7be
000000c0: 4ce3 b9be 89c8 bdbe ddf6 923e 8976 143e
000000d0: 2abe 60bd e824 b8be 1843 d23e 65b7 bbbe
000000e0: db1d f23e bd80 10be 7b2d 7f3e dad2 95be
000000f0: 8b8d f8bd cb4e 4f3e 50f4 2c3e f452 59be
00000100: 130b f4be e33e 8ebd 8637 c73e d702 5f3e
00000110: 64e5 f73d b900 003f b6de a13e 0d2d f43d
00000120: 5402 973e f21d 28be ea90 16bd cb3b 82be
00000130: e7e7 bebe 5cd3 28be 8122 fcbe d57d 4bbd
00000140: 8378 5e3e ad16 d53e e977 dabe c51e adbe
00000150: 1da6 9e3d bdcd d7be 026e 66be 9b35 aa3e
00000160: 30d5 d4be b263 58be 5e83 ecbe 1571 a33e
00000170: 5494 86bd 844f ab3d 193f 173b 44ac 843e
00000180: a5fd 4bbe 15f8 64be 99c9 803d 97a7 6ebe
00000190: 95bc e9be 459c 5bbe f5a7 b43e 8339 553d
000001a0: ac84 eabe a375 8a3d 1d3e 243d 265b cdbe
000001b0: 478e efbe 1d26 f5be 38b6 993e 2b10 c1bd
000001c0: aa19 f03e b0be 113e f7bb 043e af6a a3be
000001d0: ac12 2dbe ab9b d4be c0af fcbe d2b4 323e
000001e0: 031c 623d 5db1 103d b749 de3e df3c f03e
000001f0: 1197 c93e 268a 82be 879e d2be a2d9 c03e
00000200: 38b3 ea3c e793 97be 3f78 12be 6b3b 113e
00000210: 8687 b13e 003a f13c 0ea7 eebe d59e 26be
00000220: c4ce a5be 971d 603e 9729 b6be a8ea afbe
00000230: 4223 133e 180d b9be d4f7 843d c14a 93be
00000240: ee35 5bbe 8970 d8bc 1ec5 87be 011c 2e3e
00000250: e346 fe3d 0eb6 0e3e aeef cc3d b966 813e
00000260: f5b8 84be 3759 153e 8d7d a83e cead 1abd
00000270: ecc1 413e 3a31 08be ab7c 87bd 5b2a 28be
00000280: 99b7 7f3e 2805 a43d 91d2 dfbc 1143 d4be
00000290: 8534 c03e b6f4 f93d 8d63 f33e d431 d43e
000002a0: d181 d0be 82c1 a03e b8dd e33d f7ff 443c
000002b0: 8496 c9bc 7807 8d3e e2fb a1be c26a bc3d
000002c0: 9778 bebd 4cbf 813e e114 cabe 5a9e 8a3e
000002d0: 6a16 d13e e5c6 0e3e bbc2 60be debf a3bd
000002e0: 565b de3e f530 cd3e b328 a4be 0178 9bbe
000002f0: e57a 88bc 17b9 ae3e f1d5 31be 9fd8 86bd
00000300: c283 cebe febe f2bd 05f9 023f 2bd6 e73e
00000310: 2ef9 853b bfcc 8cbe d416 e4be abd4 313e
00000320: 717e 8abe f32f 563e 6a02 33be 3b28 8d3c
00000330: 51f5 913c 0f69 383e 0673 4ebe cc8d a9be
00000340: 6559 1ebe f526 99bd a9bd aebe 7a26 c1be
00000350: 0799 ecbd 14ef e1bd 1a81 b5bd 848e 03bf
00000360: ea78 cebe dd35 1e3d 2e1d 5e3e 4182 d63e
00000370: 8035 b83e 97ec 383d 8e31 bd3e 238a c43c
00000380: 7eda d53e 1379 1bbe 3e11 9dbe 06c3 e73e
00000390: f607 543e 4f84 75bd d0d7 00bc 9fcf 8b3e
000003a0: c9cf e8be af47 9dbe de96 3fbb 6b51 da3e
000003b0: 5ac7 e83e bca1 f9be 0847 2cbe c073 dd3e
000003c0: e928 acbd 8857 acbb 8464 d1be 6d79 9cbe
000003d0: 5b5c c7be 944e 3b3e a114 103e b1b4 7fbe
000003e0: dde2 f0be dce3 613d d9ff 963e bfd9 a3be
000003f0: 9120 d4be 4941 92be 4703 04be 4043 edbe
0.020374931 0.19122866 -0.47790903 -0.25574723 0.44125625 0.2774017 0.2644962 -0.1230041
-0.05976992 0.49117136 0.16736908 -0.5107348 -0.31526294 0.31496975 0.21076465 0.09503002
-0.22673984 0.15192433 0.0071509504 -0.027898543 -0.26341712 -0.4746475 0.28837526 0.3740675
-0.13970084 -0.51171476 0.4664675 -0.2636887 -0.48264784 -0.31297925 -0.022945916 0.4968149
-0.30199426 0.5132561 -0.16284637 0.34410742 0.19431572 0.1026674 0.39611647 -0.16412933
0.44851378 0.37985125 0.42997128 -0.1661186 -0.38813484 0.24389355 -0.32779732 -0.3281005
-0.36306226 -0.3706706 0.28703967 0.14498343 -0.054868855 -0.35965657 0.41066813 -0.36663356
0.47288403 -0.1411161 0.24919693 -0.2926243 -0.12136372 0.20244901 0.16890073 -0.2122305
-0.476647 -0.069455884 0.3890955 0.21778427 0.121043 0.500011 0.31615227 0.11922655
0.29493964 -0.16417673 -0.036759295 -0.25436243 -0.37286302 -0.16486877 -0.49245074 -0.04968055
0.21725659 0.41618863 -0.4266961 -0.33812538 0.07746527 -0.42149153 -0.22502902 0.33244023
-0.415689 -0.2113178 -0.46193975 0.31922212 -0.0657126 0.08364776 0.002307838 0.25912678
-0.19920976 -0.22360261 0.06288452 -0.23306118 -0.4565169 -0.21446331 0.3528439 0.0520568
-0.45804346 0.06760719 0.0400983 -0.40108603 -0.46788236 -0.4788064 0.30021834 -0.09426912
0.4689458 0.14232898 0.12962328 -0.3191733 -0.16901654 -0.41525015 -0.49352837 0.1745179
0.055202495 0.035325397 0.43415615 0.4692144 0.39373067 -0.25496024 -0.41136572 0.3766604
0.028649911 -0.29605028 -0.14303683 0.14182822 0.3467371 0.029446602 -0.46611828 -0.16271527
-0.32384312 0.21886288 -0.35578606 -0.34358716 0.14368919 -0.36142802 0.06492582 -0.2876797
-0.21407291 -0.026420848 -0.26517576 0.1700287 0.12415864 0.13936636 0.10006653 0.25273684
-0.2592236 0.14584814 0.32908288 -0.03776341 0.18921632 -0.13300028 -0.066155754 -0.16422407
0.2497238 0.08008796 -0.027322086 -0.41457418 0.3754007 0.12204878 0.4753689 0.41444266
-0.40724042 0.31397635 0.11126274 0.012023917 -0.024607904 0.2754476 -0.31637484 0.0920005
-0.093003444 0.2534126 -0.39469054 0.27073938 0.40837413 0.1394306 -0.21949284 -0.0799558
0.4342906 0.40076414 -0.320623 -0.30364993 -0.016660163 0.34125587 -0.17366768 -0.06584286
-0.40334898 -0.11852835 0.51161224 0.45280585 0.0040885424 -0.2749996 -0.44548666 0.17366283
-0.27049592 0.20916729 -0.1748139 0.017231097 0.017817171 0.18008827 -0.20161065 -0.33115995
-0.15463789 -0.074781336 -0.34129074 -0.37724668 -0.11552625 -0.11031929 -0.08862515 -0.51389337
-0.40326625 0.038625587 0.21690819 0.4189625 0.35978317 0.045147505 0.3695187 0.02399165
0.4176826 -0.15182905 -0.30677217 0.4526598 0.20706162 -0.059940632 -0.007863954 0.2730684
-0.45471027 -0.30718753 -0.002923421 0.42640242 0.45464593 -0.48756206 -0.16823971 0.43252373
-0.084062405 -0.005259458 -0.40897 -0.3056139 -0.3893765 0.18291694 0.1407037 -0.24971272
-0.47048083 0.055148944 0.2949207 -0.32002065 -0.41431096 -0.28565434 -0.12891875 -0.4634037

model.h0-0.bias f4 [64]
00000000: 139a ea3e 8025 06be 173a 523d 4c90 9a3d
00000010: 1c39 f73e 19d5 8f3e ec30 c93e 36f5 363e
00000020: 59d3 cfbe 9d9b e93e fb04 70be f5cd 0dbe
00000030: a8f3 11be 6c73 13be a360 d83e f148 e43e
00000040: f534 a2bd a71a 16be 5694 053e 7f57 d43e
00000050: 0700 3abe aaea 8bbe 4c9e b5be 0c28 c5bb
00000060: 60fa 343e bf3b cfbe 477a 9ebe 8792 d1be
00000070: 193c 243e cb89 073e 38de a4be d9fb a3be
00000080: 23e8 f53c 0ff9 edbe 854e e0be 3225 843e
00000090: 5ca1 f13e 6d58 c23e e82d 8a3e e929 e63e
000000a0: 0caa 4d3e f89d e2bd 8762 c6be f0de fcbd
000000b0: 98c3 f13d d045 1cbe f150 e73d 64e0 58be
000000c0: 9bd9 903e 3857 1ebe faae 95be 58d8 a63e
000000d0: 1fcf a33d 0edc 513e 97a7 5dbe 9725 70be
000000e0: 18fe b23d 7974 cebe fad3 a5be c4d1 d9be
000000f0: 1f13 9bbe 66cc e33e 749b be3e 0f75 e83e
0.45820674 -0.13100243 0.05132493 0.07547054 0.48285758 0.28092268 0.39295137 0.17866978
-0.40590933 0.45626536 -0.234394 -0.13848098 -0.14253104 -0.14399499 0.42261228 0.445869
-0.07920257 -0.14658605 0.13044867 0.41473004 -0.18164073 -0.27327472 -0.35472333 -0.006016737
0.17673635 -0.4047527 -0.30952665 -0.40932104 0.1603855 0.13236158 -0.3220079 -0.32028082
0.030017918 -0.4647908 -0.43809906 0.25809628 0.4719342 0.3795809 0.2698815 0.4495385
0.20084399 -0.110652864 -0.38747045 -0.123472095 0.11804885 -0.15261006 0.11294735 -0.21179348
0.2829102 -0.15462959 -0.2923506 0.32586932 0.079984896 0.204941 -0.21645962 -0.2345184
0.08739871 -0.40323237 -0.32388288 -0.4254285 -0.30288026 0.4449188 0.37227976 0.4540181

model.c0-0.weight f4 [64, 4]
00000000: 4660 e1be ea1e 703c 6ff9 c83d 5398 aa3d
00000010: a428 c9bd f108 943e 0799 a3be 69c0 fabe
00000020: 9371 73be dc8b 693e d1c1 84be ebb5 d4be
00000030: 295b c1bd fcc2 6ebd 1efd 4fbe 64a9 aabd
00000040: 7c0f 00bd 1a88 c73e 8be0 0f3e ef29 653e
00000050: 44ca 97be e4e2 cbbe ef14 ccbd bac7 3abe
00000060: a799 a3be 77c9 b7be 8392 7cbd 012c 923e
00000070: abbe 6bbd 0c46 143d 3a70 c4be c688 ae3d
00000080: 1e1f babe 382f 88be ba93 b33d c739 7abe
00000090: 3e61 e73e c8b0 dfbd 39b7 c33e 3a14 d13d
000000a0: e3d1 ed3d 6a54 b03e b119 b5be 038a c33e
000000b0: 5bf2 b13c dfb9 f1be 415d 433e 6211 b6be
000000c0: 0b9f a1be 4c2d 673d c2c9 ee3e 5240 c93d
000000d0: 80cb 2c3d 981a c8bd b1d4 fbbd 5e13 983c
000000e0: 5566 883e d152 973e d82a 8abe 303b 65be
000000f0: 08bd 44bd 1b4e ff3d ac3d 023f a733 9c3e
00000100: 2fe8 20be e04d 2c3e 0860 c63e 0677 b5be
00000110: ee64 773e d156 b63e ca5a fb3d d48a 533d
00000120: d614 cc3d 2da1 c5be 53da dabd 956b 5d3d
00000130: deb0 e23e 9081 87bd 298d b9be 4e89 443e
00000140: a64f 82be 5b11 d93b 9453 433e 30a3 dabc
00000150: 009c 003f e67b 84be 561f fabd 0b49 d03e
00000160: e226 b3be ed4c bfbe d352 d23e 4e4c 00bf
00000170: 3cb0 f0be 0bcf 0b3e eba6 4fbd 440f b33e
00000180: 3254 ebbd 0606 acbe abe6 c3be 2abf a7be
00000190: 050d c7bd e30d f6be 12b5 f9bd 09c2 9b3e
000001a0: dfc1 25be e74d e9be fc39 fc3e 9d4b 893d
000001b0: 313e 60be 732c f9be 3fe7 fd3d 133a f5be
000001c0: 8cb8 bc3e ac00 6ebe 160a e6be 11bd 3f3e
000001d0: 5aed 03be f101 babe a1da 57be c65d 993e
000001e0: 0d9c 8037 3a89 ae3e 5835 e13e b226 d5be
000001f0: 4276 fc3e 636a f7bd fb76 aebe 4814 953e
00000200: 6acf 0cbe b44d 323e edf5 0ebe caae af3c
00000210: dc54 073f 486d 05be ae5a a33d e3d2 71be
00000220: 7cbf 2f3e 7f6c 91be 369e e5be 03e0 39be
00000230: bfec 9abe 98ac 6a39 fade b9be aca3 fa3e
00000240: 7e2e 5dbe 54e8 1f3e e690 193e c281 f0bb
00000250: 6ef4 abbe 9ad1 383e 649c ff3e f438 e4be
00000260: 8da9 f1be 9c4d 483e 03b7 4e3d f089 bb3e
00000270: e9e3 38be 72a1 a2be fef4 b23e 6d6b b2be
00000280: 5283 b53e 7e6d a9be 7e30 fd3e 1040 cc3c
00000290: 7f3a ed3e 1019 403e 2066 dd3e 0291 683e
000002a0: dbed db3e badc 92be 52b3 0c3f 535e c03d
000002b0: d43e 8bbe 1be3 aabe ca94 b43d 3876 c83e
000002c0: a3e9 a63e ad85 8f3e d4db a0be 44e7 f4bd
000002d0: 9ac4 a83c 1ef3 cfbe 1bcb e13e 0349 ebbd
000002e0: 3ae2 013f ce46 58be 2260 b83e ba04 b6be
000002f0: 2af2 f83e 3a50 a3be 7dd2 a3be 51aa 993e
00000300: c18c 35be 4828 f3be 9fac debe da15 1bbe
00000310: 65ef d03e ea0e 15be 8bd6 343d fe63 86bc
00000320: 02a3 b23e f6ac 02bf 40a3 3a3e 79bc 473e
00000330: 95f8 ecbe 73b0 b73e c58b 6bbe 2f93 f7bd
00000340: d925 093e 794e c03e ac52 41bd 8eab a4be
00000350: 56a2 b5be 3e11 a13e aad7 253e ef12 a2bb
00000360: 9949 dc3e 2841 b63e 75fe b93b 06d9 d8bc
00000370: 6747 783e c46f cfbc ec95 bdbe 0d00 663e
00000380: 9995 bdbe a9de 513e 56a6 cf3e 3044 65be
00000390: 97c1 36be b41b 813e 0a85 7b3e 85b7 443e
000003a0: fcf7 a03c 126f dabd 711b 90bb 1e43 aebd
000003b0: a55e 543e 3097 f2be b883 c6be aaec f43d
000003c0: cac3 f03e 5c8c 8fbd a7ab c8be cb8e 3d3e
000003d0: 35dd 733e 2c90 313e ac9f 9f3d 434c d7be
000003e0: 39d7 07bd 4c2f 4a3e bdae 25be 65ed 17bd
000003f0: 1e8e 0ebd e7f3 883e 96fb 663d 40f5 e63e
-0.44018763 0.014655808 0.09813201 0.08329835 -0.09822205 0.28913072 -0.31952688 -0.48974922
-0.23773794 0.22807258 -0.2592912 -0.41545042 -0.094412155 -0.05829142 -0.203114 -0.0833309
-0.031264767 0.38971025 0.140505 0.22379278 -0.29646504 -0.3982154 -0.0996493 -0.18240252
-0.31953165 -0.35895893 -0.061663162 0.28549197 -0.057554882 0.036199614 -0.38366872 0.08522181
-0.36351866 -0.26598525 0.08768411 -0.24436103 0.45191377 -0.1092239 0.38225725 0.10208936
0.11612298 0.34439403 -0.35371163 0.38191232 0.02172201 -0.4721212 0.19078542 -0.35560137
-0.31566653 0.056439683 0.46638304 0.09826721 0.04218626 -0.09770697 -0.12296427 0.018563922
0.26640573 0.2955537 -0.26985812 -0.2238586 -0.048031837 0.12466069 0.50875354 0.30508158
-0.15713571 0.16826582 0.3874514 -0.3544237 0.24159595 0.3561311 0.12273176 0.05164607
0.09964912 -0.3859953 -0.10686173 0.054057676 0.44275564 -0.06616509 -0.3624051 0.19193003
-0.25451392 0.0066243834 0.19074851 -0.026689142 0.5023804 -0.25875777 -0.12213008 0.40680727
-0.34990603 -0.37363377 0.41078815 -0.5011643 -0.47009456 0.136532 -0.050696295 0.34972584
-0.11490668 -0.33598346 -0.38261923 -0.32763034 -0.0971928 -0.4805747 -0.121927395 0.30421475
-0.16187237 -0.45567247 0.4926299 0.06703875 -0.21898724 -0.48666725 0.12397622 -0.4789587
0.36859548 -0.23242444 -0.4492957 0.18724467 -0.12883511 -0.36329606 -0.21079494 0.29954356
1.5331456e-05 0.3408907 0.4398601 -0.41631085 0.49308974 -0.120808385 -0.3407515 0.29117036
-0.13750997 0.17412454 -0.13961 0.02144565 0.5286386 -0.13029969 0.0797628 -0.23615603
0.17162889 -0.28403088 -0.44847268 -0.1815186 -0.30258748 0.00022380275 -0.3630293 0.48952997
-0.21599767 0.1561597 0.1499668 -0.007339687 -0.33584923 0.18048707 0.49924004 -0.44574702
-0.4719967 0.19560856 0.050467502 0.36628675 -0.18055691 -0.31763798 0.3495254 -0.34847584
0.35451752 -0.33091348 0.4945106 0.024932891 0.4633369 0.1875956 0.43241978 0.22711566
0.42954907 -0.28684026 0.5496112 0.09392991 -0.27196372 -0.33376393 0.08817442 0.39152694
0.32600126 0.28031674 -0.31417716 -0.11958173 0.02060156 -0.4061517 0.4410027 -0.11488535
0.5073582 -0.2112076 0.36010844 -0.3555048 0.48622257 -0.31897146 -0.31996527 0.30012754
-0.17729475 -0.4749167 -0.43491074 -0.15145054 0.40807644 -0.1455647 0.044149917 -0.016405102
0.3488999 -0.5104517 0.18226337 0.1950549 -0.46283403 0.35876808 -0.23002537 -0.1208862
0.13393344 0.3755987 -0.047197983 -0.32162136 -0.35475415 0.31458467 0.1619555 -0.0049461047
0.430249 0.35596585 0.0056760856 -0.026470672 0.24245988 -0.025321849 -0.37028444 0.22460957
-0.37028196 0.20495094 0.40556592 -0.22389293 -0.17847286 0.25216448 0.24562469 0.19210632
0.019649498 -0.10665716 -0.0043978025 -0.08508895 0.20739229 -0.47380972 -0.38772368 0.119592026
0.47024375 -0.07009193 -0.3919346 0.18511502 0.23814853 0.17340153 0.07794127 -0.4205037
-0.033164237 0.19744605 -0.16179939 -0.03709163 -0.034803502 0.26748583 0.056392275 0.45108986

model.c0-0.bias f4 [64]
00000000: d5f7 10be 0f80 5e3e f6f2 02bd 47f2 3e3e
00000010: c2f4 a5be 6f47 5abe 287f 8d3d 8699 cabe
00000020: a12d f13e 9ef4 adbe f9af fdbb 3fa3 eb3e
00000030: b54e d83e a41c aebd 55b5 3d3d 8c1d bc3e
00000040: d891 cf3e b39a 92be 5175 c9be 1364 aa3e
00000050: e96e 673e 9d0a e93e c5e8 05bf 58c0 df3e
00000060: 7f51 b4bd 5031 a3be 8e9d a0bc 4629 8abd
00000070: 2ae1 a73e 478d dbbe 225b 69be 9b8b 8bbe
00000080: 152f 79bd 7d8b babe f993 843e 6a4c 02bd
00000090: 8a68 9bbe 0d26 f3be cfc2 f93e 4b06 c1be
000000a0: 53c3 9b3d 163e 7e3e bf96 fb3e 376f 513c
000000b0: 535b bc3e 4649 bcbe 9d5c f53c be14 b2be
000000c0: 8084 843e a845 14be 7062 2fbd 637b f43e
000000d0: 438f b53e cb93 de3e 1ce0 d8be 1c6c e2be
000000e0: b47a 96bc 035b cfbe 364f 28bc ebcb c1bc
000000f0: 8b6c f1be 5d3a 9dbc 3a5d 8c3e 1b09 473e
-0.1415704 0.21728538 -0.031969987 0.18647109 -0.32413298 -0.21316312 0.06909019 -0.39570254
0.47105125 -0.3397569 -0.007741925 0.46022984 0.4224755 -0.085015565 0.04631551 0.36741292
0.40540957 -0.2863365 -0.39347318 0.33279476 0.22600903 0.4551591 -0.52308303 0.43701434
-0.08804607 -0.3187356 -0.019606378 -0.067461535 0.32788974 -0.42881224 -0.2278867 -0.27254948
-0.060835917 -0.36434546 0.25894144 -0.031811155 -0.30353194 -0.47489968 0.4878144 -0.37700114
0.076056145 0.24828371 0.49138448 0.012782863 0.36788425 -0.36774653 0.029951388 -0.3478145
0.2588234 -0.14479697 -0.042818487 0.47750387 0.35460863 0.43472132 -0.42358482 -0.44223106
-0.018369056 -0.40499124 -0.010272792 -0.023656806 -0.47153124 -0.019192869 0.27414876 0.19437067

model.cell-0.weight_ih f4 [256, 17]
00000000: 2333 d6bd be80 85bd 0b38 87bd 0033 cf3d
00000010: 8caf f2bd 5878 013d 0de9 87bd 4175 953d
00000020: 02a1 ab3d bf4b 993d 4557 dd3d 3822 87bd
00000030: 3367 583d 2bf1 843d 58d9 a83d eeff febd
00000040: 33b2 1fbc 813a 813c 9d76 9fbd 44e3 0abc
00000050: a24d 93bd afbe 463d 32f6 f1bd 7b0c 08be
00000060: 46a6 bf3c 759f e43d ebf8 203c 10f1 523d
00000070: cb6a 9f3d f5ec 2c3d 4405 58bd 87ce f0bd
00000080: 64e1 ca3d 487f f9bd f707 d1bc 6745 673d
00000090: abbe a9bd 6ea8 a3bd a6df d0bd ae20 c83d
000000a0: eccd 323d e823 13bd 9f04 453d 77a9 80bd
000000b0: 63d4 60bd 331f d03d 80b0 14bb 7125 88bd
000000c0: 35e6 91bd b45e f1bd cfdf e63d 1fe4 e43d
000000d0: 87e7 89bd c5dd 38bd eb08 82bc 1b54 d43d
000000e0: 2ea8 663d 49da a4bd 86fa b7bc e88a 433d
000000f0: d740 423c eb14 723d ec5e 813c 2b62 963d
00000100: 37ff d6bd 21fc 723b eadc 093d 693d d8bd
00000110: e742 d73d 84ee 6ebd c0e5 c93d 1e51 b33d
00000120: 88ec 803d a108 f1bd 9704 f0bd 0e8c d03c
00000130: bd62 e3bd 05cf b53d e04b be3c fb3c f1bd
00000140: 6c8b f73d fef7 653d b04f 40bc 410f 3abd
00000150: 6178 eebd 3c83 29bd 19cb 28be 58d2 8cbd
00000160: 020f 1abe 48e5 14bd 4cdb 4abd 63c6 08be
00000170: 9104 143d a1f1 ac3c d8c4 79bc 725f 0ebe
00000180: a93e 99bd e1ba c4bd e67b 93bd 967c 73bd
00000190: 49d8 d5bd f6f7 953c f23a f3bb 8a8b edba
000001a0: faea b5bd a2b2 60bd 4626 ee3d 74dc 3bbd
000001b0: c6fb 37bd 0fc4 19bc fe41 6b3d bca8 88bd
000001c0: b2e2 a5bc c96a fbba ff70 bb3c 2507 623d
000001d0: bf9e 20bd 7fcf b9bd 0b80 bdbd c2e0 7cbd
000001e0: eb04 d93c cf70 04be 9f9f c0bc da46 973b
000001f0: 04ec e03d cff3 f2bd 40fe d1bd d71a 91bd
00000200: 93a4 f9bc 3a01 b9bc 6745 93bd ac80 b53d
00000210: 31e5 13bd b36a 6b3d a0d5 983c 4d6f c2bc
00000220: 9de8 543d dee9 94bc e6e0 3a3d 8acf 833d
00000230: 3d94 2a3d 6667 22bd 5ede 02be de36 0bbe
00000240: e56f 8fbc d5ab c5bd fb4c 22bd 8c51 9b3d
00000250: 54a7 86bd 6db6 fe3b 258b dd3c d537 be3d
00000260: 60af dbbd bd2e 733c 3c2a 0dbe a131 abbd
00000270: 0c8e 78bd 6060 723c c034 d13c 7bd2 043d
00000280: c06e ccba 876a c1bc 42cf 56bd ae99 b2bc
00000290: 853e 283d 02fb d93d 3605 463d efde 6bbc
000002a0: 9268 8abd 2a0b d4bd d23b 373d 82f5 d23d
000002b0: e3e4 e9bd 6dcc 283c 8bf4 36bd 54d0 7ebc
000002c0: 1059 f13b a41a 35bd 8ed3 71bd 9025 7f3c
000002d0: ed14 bb3c 6a6d d73d d008 2b3d 1d53 dcbc
000002e0: 54c4 10bd fecd 983d a3b6 603d e8e9 e1bd
000002f0: 638d 84be 2a15 d5bc 2734 84be f9e1 8bbd
00000300: 7c60 8cbe 82df 67be f0e1 99bd 8895 8ebd
00000310: a06c 49be 3d45 00be df38 9dbe ec75 39be
00000320: 2814 2fbe f8ea d4bd 0205 2ebe ebaa e5bc
00000330: 34c8 39bd 2b15 1cbe b981 bb3d d2cd dabd
00000340: b7a0 bdbd 9c4b 9b3d 954a 1c3d fee7 1d3d
00000350: a61b 9abc c51d c0bd d382 b9bd 74b1 953d
00000360: ade1 b63d 96ef 5d3d 00e1 03be a189 f5bd
00000370: c014 b3bd fdcd 82bd 2a67 893d 1523 263d
00000380: 807a 01be 5d84 9dbc 95f7 66bd c5d5 5fbd
00000390: 4b4b bc3d f953 81bd 40de fb3c b17c 4abd
000003a0: 6e0c dd3d c861 28bb 4369 123c 88e9 7a3d
000003b0: d79b ca3b b9a9 9f3d 13df debd 8f7b cf3c
000003c0: bf5a 12be 75b4 99bd 5e8a 21be 7ad3 c9bd
000003d0: b420 71bd e5c6 33be d341 e6bd fe9e c13c
000003e0: a001 4c3d d321 31bd 3163 39be ca2d 3abe
000003f0: cc23 9b3c dc28 5cbd 256b 1bbc 64c3 a93c
-0.10458972 -0.06518696 -0.06602486 0.10117149 -0.11849889 0.03160891 -0.06636248 0.07297755
0.08380319 0.074851505 0.10807661 -0.065983236 0.052832793 0.06491312 0.0824458 -0.124511585
-0.009747076 0.015774967 -0.077862956 -0.008477036 -0.07192542 0.048521694 -0.11814536 -0.13286011
0.023394715 0.111632265 0.009824972 0.051499426 0.07784041 0.042218167 -0.052739397 -0.11758142
0.09906271 -0.1218248 -0.025516493 0.05646267 -0.0828832 -0.0799111 -0.101989076 0.09771858
0.043653414 -0.035922915 0.04810011 -0.06282323 -0.054890048 0.10162201 -0.002268821 -0.066477664
-0.07123987 -0.11785641 0.11273157 0.11176323 -0.067336135 -0.04513337 -0.015873393 0.10367604
0.056312732 -0.08049447 -0.022458326 0.047739893 0.011856279 0.05910198 0.015792333 0.07342943
-0.10497897 0.003707655 0.033657946 -0.10558588 0.105108075 -0.058332935 0.098582745 0.08755706
0.06295115 -0.11769224 -0.117196254 0.025457408 -0.11102817 0.088773765 0.02322954 -0.11779209
0.120871395 0.056144707 -0.011737749 -0.045424704 -0.11644054 -0.04138492 -0.16483726 -0.068760574
-0.15044788 -0.036351472 -0.049525544 -0.13356929 0.036137167 0.021111311 -0.015244685 -0.13903597
-0.074826546 -0.09605957 -0.07201366 -0.059444986 -0.10441644 0.018306714 -0.0074227983 -0.0018123251
-0.08882709 -0.054857858 0.11628394 -0.045864537 -0.044917844 -0.009385123 0.057435982 -0.066728085
-0.020249698 -0.0019181605 0.02288103 0.055182595 -0.039213892 -0.0907278 -0.09252938 -0.061737783
0.026491603 -0.12933658 -0.023513613 0.0046166005 0.109825164 -0.11862909 -0.102535725 -0.070851974
-0.030473983 -0.022583593 -0.07190972 0.08862433 -0.036107246 0.057474803 0.018656552 -0.023734713
0.05197965 -0.018177923 0.045624636 0.06436069 0.041645277 -0.03964939 -0.12780139 -0.13595149
-0.01750941 -0.09651915 -0.039624196 0.07583913 -0.06574884 0.0077732117 0.027043888 0.09287993
-0.107268095 0.014842686 -0.13785642 -0.08359075 -0.06068234 0.014793485 0.025537848 0.032427292
-0.0015596971 -0.023610367 -0.05244375 -0.021801796 0.04107525 0.10643579 0.048344813 -0.014396413
-0.067582265 -0.10353692 0.044734783 0.10300733 -0.1142061 0.010302645 -0.044666808 -0.015552599
0.0073653534 -0.04421486 -0.059039645 0.01557292 0.022837127 0.10518916 0.04175645 -0.0268951
-0.035343483 0.07461165 0.054861676 -0.11030942 -0.2588912 -0.026011068 -0.2582104 -0.0683021
-0.27417362 -0.22643855 -0.07513797 -0.069621146 -0.19670343 -0.12526412 -0.30707452 -0.1811139
-0.17097533 -0.10396379 -0.16994098 -0.028035602 -0.045356944 -0.1524245 0.09155602 -0.10683788
-0.092591695 0.07582781 0.038157064 0.038551323 -0.018812012 -0.09380678 -0.09058156 0.07309237
0.08929763 0.054183565 -0.128788 -0.11989141 -0.08744192 -0.063869454 0.0670913 0.0405608
-0.12644386 -0.019228155 -0.056388456 -0.054647226 0.091940485 -0.06314845 0.030745625 -0.04943532
0.107933864 -0.0025693048 0.008936229 0.06125787 0.0061831283 0.07796044 -0.10882392 0.025327472
-0.1429243 -0.075051226 -0.15775439 -0.09854789 -0.05886908 -0.17556341 -0.11243024 0.023635384
0.049806237 -0.043245148 -0.18104245 -0.1818153 0.018937968 -0.053749904 -0.009485994 0.020723052

model.cell-0.weight_hh f4 [256, 64]
00000000: 90aa 81bd 8c48 793d 364c 8e3d a0eb 8b3c
00000010: bb4f bf3d 3519 46bd 4605 153d 3f3a 67bb
00000020: 5623 db3d 672a 283e 5b93 e3bc b72a 333d
00000030: cb40 cabd eca5 333c 2e8f 853d 666a cd3d
00000040: 8ecd ea3c a5ad 303e 1db5 09bd e808 9abd
00000050: a92a 51bd 675a c43c d7f8 b4bd ca66 563d
00000060: f663 d83c 3e72 91bd e143 88bd b34c 863c
00000070: fbe0 543c bda8 293d f18c f23d c282 eabc
00000080: 5d58 70bd b73c 25be 3c03 15be c96f e1bc
00000090: a812 2d3e a0d2 3f3e 0ca7 ee3d 8e41 143e
000000a0: eb97 063e 302f 7c3d b1d8 88bd 8098 65bd
000000b0: 983d dbbc d1a0 d93d 900f 2c3e 35ab 87bd
000000c0: b6f8 873c 6a39 a83c 803e 29bd b802 a2bd
000000d0: 4aa6 68bd 07f8 b43b fda8 b9bd 6277 b1bc
000000e0: 1725 d73d 2387 7cbd 9f33 aa3c b6df c4bd
000000f0: 3319 82bd 9163 3ebd a5e6 fe3b 5f8b 4d3d
00000100: 4d8e 79bd 727d 8a3d 6387 06be 8720 81bd
00000110: 84e7 b7bd d0b9 f7bd 8c1d cbbd 1cde f13d
00000120: 635f 4fbd 83d7 483d 7298 413c 0c6b bc3c
00000130: a810 ac3c bdb1 40bc 0ebf 333e 2047 133d
00000140: 6937 dcbd 738a 393d a9d8 a0ba 2134 edbd
00000150: d350 e1bd 7965 d33d 27fe 73bd 5645 f13c
00000160: 4ea2 af3d e9eb b3bd c7dd a13d 6fc3 6bbb
00000170: 84fc 41bc b2f1 d3bd 4cee 9b3d 3132 91bd
00000180: 4f9e 1ebd 3855 2e3c 1e7b 8e3d 7a66 87bc
00000190: 80aa 3fbd 7d5a 0f3d bf2d d2bd aa79 d73d
000001a0: 379e 83be 4dc8 aebd 7758 d33d eed5 413d
000001b0: 1664 75bc 200c 4e3d edd4 01be 4e23 e1ba
000001c0: 6e43 b03d f901 b1bd d6f5 e4bd 8e37 14be
000001d0: 5970 36bd 3c17 1e3c 66be 31bd ed4c 95bd
000001e0: f74b 0abe 4771 cfbc 60a7 58bd 36bd b33c
000001f0: ae09 a4bc 903f 043e 0b13 493d c345 92bc
00000200: 1157 a5bd d627 13be 8730 683c 7a2a f6bc
00000210: f056 d13c 2841 1fbd 31a2 7c3d 6a86 0c3c
00000220: e92d 41bd 4af9 4d3d 0609 f2bb 69c0 a2bd
00000230: daa7 8c3d d4f2 9dbc d67c 443d d437 0a3d
00000240: 6f9f b9bd 1849 133c fadb b5bc 48d7 953d
00000250: 4c13 7a3d 20fc bc3d 80dd babb 0191 8e3d
00000260: 88d2 e23c 051c b03c 3453 dbbc 69c4 8bbd
00000270: 527a edbd 0fda 1b3e c798 253d 5b0b 073d
00000280: 04f4 203d 1c1c b63d 15a0 47bd 8580 51bd
00000290: 2fee 113e 8f03 0bbe e0f2 edbd 735d e8bd
000002a0: 18ab a13d a2ab e0bd c5da f7bd 4ad0 583d
000002b0: d6cd aebd f7db 1ebd e54b c9bd c2bb 30bd
000002c0: 8b37 123d b370 39bd f7b7 f13d 6c3e 74bc
000002d0: ab7b 2e3e 3107 293e 9be0 b6bc 6dd5 62be
000002e0: ab3d 45bd 16be ebbd 71f3 f43d 845f 833d
000002f0: 54c3 b8bd 61f9 94bc 0dc4 f1bd ff6c ce3d
00000300: cbec aebd d533 10bd 25a0 5cbc 0593 06be
00000310: 3cf1 05be 8d2a 41bd 8ecf c9bd 6cfd 64bd
00000320: 6b84 a4bd 5a35 c8bd fc2c ddbd 8d5f 653d
00000330: 0c58 aebd ae00 d1bd 37c1 ac3d 0306 ce3d
00000340: 1bbc d5bd d6a0 903c 00fb 60bd 6616 3f3c
00000350: fe61 19bc fba6 1cbd 5a23 a73d be6f 37bd
00000360: 414f ca3d 5908 c8bd 231f c5bd 4142 863d
00000370: 48e5 babb 38ec 35bd f0e1 75bc 3686 f03d
00000380: c5af 863d 55fe 9a3c ce9b 78bd 1ad4 bebd
00000390: 63fa 8d3d a6b4 a23d 36b4 c73d 900e b73d
000003a0: 1143 eabd 7018 aabc 64d2 1bbe 0fae a9bd
000003b0: 133e 2cbd 58f8 99bc 4301 ba3c 11e4 16be
000003c0: 46de 6c3d e759 603c 21a0 87bc 0975 043c
000003d0: f567 a4bc 2d62 8e3d 110b 9ebd e92a 0c3e
000003e0: 9c6b b43d 3f7f aa3d 9a22 8ebd 8305 bd3d
000003f0: 4e71 f3bd d3fa 0abe 686b 383d 713b 0ebe
-0.0633136 0.0608602 0.0694813 0.017080128 0.09341379 -0.048363883 0.036381982 -0.003528252
0.10700099 0.16422425 -0.027780226 0.043741908 -0.098756395 0.010964852 0.0652145 0.100300595
0.02866247 0.1725374 -0.03361999 -0.0752123 -0.051066075 0.023968888 -0.08836525 0.05234412
0.026414853 -0.07101868 -0.06653572 0.016393995 0.012993093 0.041420687 0.11843289 -0.028626803
-0.05867802 -0.16136442 -0.14552015 -0.027519124 0.16901648 0.18732691 0.116529554 0.14478132
0.1314389 0.06156844 -0.066819556 -0.05605364 -0.026762769 0.106263764 0.16802812 -0.06624452
0.016598087 0.02053519 -0.04131937 -0.07910675 -0.05679921 0.005522731 -0.09065435 -0.021663371
0.10505121 -0.061652314 0.020776568 -0.09612982 -0.063524626 -0.046481673 0.00777896 0.050181743
-0.060926724 0.06762208 -0.13137583 -0.06305032 -0.08979705 -0.12095988 -0.09917745 0.11809942
-0.050628077 0.049033653 0.011816131 0.023000263 0.021004036 -0.011761126 0.1755335 0.035956502
-0.10752756 0.04529805 -0.0012271601 -0.115822084 -0.11001744 0.10322089 -0.05956855 0.029452007
0.08575879 -0.08785231 0.07903629 -0.0035974642 -0.01183999 -0.10348834 0.07613811 -0.070896514
-0.038725194 0.010640435 0.069570765 -0.016528357 -0.04679346 0.034998406 -0.102626316 0.105212525
-0.25706646 -0.08534298 0.10319608 0.04732316 -0.014977476 0.050304532 -0.12678881 -0.0017176659
0.08606611 -0.086429544 -0.11179702 -0.14474317 -0.044540737 0.009649094 -0.04339447 -0.07290063
-0.13505541 -0.02532257 -0.052893996 0.021940809 -0.020024147 0.12914872 0.049090426 -0.01785553
-0.08073247 -0.14370665 0.014171726 -0.030049551 0.02555415 -0.038880497 0.061678115 0.008576969
-0.047162924 0.05028657 -0.0073863296 -0.079468556 0.06867953 -0.019280829 0.047970615 0.033744648
-0.09063613 0.008989595 -0.02219962 0.07316452 0.06105356 0.092277765 -0.0057026744 0.06961251
0.02768828 0.021497736 -0.026773073 -0.06824572 -0.115955964 0.15219902 0.040428903 0.032969814
0.03929521 0.0889208 -0.04873665 -0.051147956 0.14251016 -0.13575576 -0.1161859 -0.11345949
0.07893962 -0.10970236 -0.12102274 0.052933015 -0.08535354 -0.038783994 -0.09828929 -0.04314781
0.0356975 -0.045273494 0.11802667 -0.014907461 0.17039363 0.1650665 -0.022323897 -0.22151728
-0.048154514 -0.115108654 0.11960495 0.064147025 -0.09021631 -0.01818532 -0.11804972 0.10079383
-0.085412584 -0.03520568 -0.013465916 -0.13142021 -0.13080305 -0.04715972 -0.09854041 -0.055905744
-0.08033069 -0.09775801 -0.10799596 0.055999327 -0.08512887 -0.10205208 0.0843529 0.100597404
-0.10436269 0.017654818 -0.054926872 0.011663055 -0.009361742 -0.038245182 0.0816104 -0.0447843
0.09878398 -0.09767217 -0.096250795 0.06555606 -0.005703602 -0.04441473 -0.015007481 0.11744349
0.06576494 0.018920103 -0.060695462 -0.09317799 0.06932523 0.07944612 0.097511694 0.089383245
-0.11438573 -0.020763606 -0.15216976 -0.08285152 -0.042051386 -0.018795177 0.02270568 -0.14735438
0.057829164 0.013693309 -0.016555848 0.008084544 -0.020069102 0.06952319 -0.077169545 0.13688244
0.08809587 0.083250515 -0.069401935 0.09229567 -0.118868455 -0.13572244 0.045024306 -0.13889863

model.cell-0.bias_ih f4 [256]
00000000: 098a b13d b84a dd3d 0c6c aabd 5272 febd
00000010: 9708 103e eca6 0abe fb4d fb3d 1218 73bd
00000020: 5b53 bc3d 5e5f bebd 90c4 03bd b887 9e3d
00000030: f8ec c43c b042 39bc 8034 053e 8442 5e3d
00000040: b2c4 ae3d 0c7b 923d f679 513d 29cd 98bd
00000050: 68e9 9d3d 64bf 8e3d ea32 943a 045b bebd
00000060: 82bf 843d e3a5 cebc 954a 953d a0c3 0fbd
00000070: 85bc 32bd 19ab 673d 2833 93bc 1457 853d
00000080: 3486 95bd 5d31 c73c cd23 18be 045b d2bd
00000090: 24d8 aabd 2305 2e3d 0eb3 02bd d7c1 753d
000000a0: ad71 853e 5a75 843d 5870 15bd 1a88 1cbe
000000b0: 2b86 cfbd 106c 97bd 7b73 bebd fc35 d73d
000000c0: c38b 8c3d d480 b9bd fec5 07be 5bba 3a3d
000000d0: 7b67 b63d 2f77 dcbd cba2 873d e883 273d
000000e0: 4a3b d83c 263b 913d 3be6 85bd ee7d a13d
000000f0: ca5a 453d b80f 133c f4e0 b1bd 7db0 813d
00000100: 80b6 d4bd 4805 4d3d 8612 81bd 3367 4a3c
00000110: 9b50 d33d bad4 e63d f18e 6a3c 16fe e3bd
00000120: 3bf1 803d 24d6 c93b d105 853d 6228 053f
00000130: 203f 7a3d fb35 29be a153 ad3e 9a44 733e
00000140: dd73 37bd 223f ecbd b96b 53bd 35b5 d43d
00000150: 036c 80bd 727d 8e3d 29b8 f73d c0c2 8d3d
00000160: acb6 3abd 849e d63d 16f0 b43d e5f5 cbbd
00000170: 1daf 7cbd cd48 dbbd ef6d 30bb 0a27 553d
00000180: f0be 803c 0095 dd3d 114f afbd 0303 73bd
00000190: d488 a7bc 1526 f63d 028d 80bd a200 2abd
000001a0: 6025 28bb 6cb4 5ebd 4555 d93d 7df3 09be
000001b0: 4584 b13d 1164 83bd 5046 973d 50ec 233e
000001c0: bb6a de3d d9d8 32bd ebb0 e03c a124 c8bc
000001d0: 2b97 0b3e 1907 023e 45f5 a2bd 1041 b73d
000001e0: cb6f 60bd d907 aa3d 6e6c a8bd ee1c 47bc
000001f0: c2d6 edbd 5a0d afbd 7115 ab3a b0cd 5dbd
00000200: e4bc 54bd 62f7 913c 1ec5 3cbd 9f2d cf3a
00000210: e7c9 9ebd f229 a83d 3915 523d e5f9 acbd
00000220: 6996 aebd 55be 74bd 507c e03d b68a 993d
00000230: 79b0 4cbd c218 1dbd db8e a0bc f69c d6bd
00000240: 6ba6 4e3d b77d bfbd dbe0 873d a1b1 9f3d
00000250: c860 d23d e664 c2bd 8a2c 4e3d a66d fc3d
00000260: ff07 a9bc 84bc e03d 9fc9 663d 7643 84bc
00000270: 4895 6cbd 6077 553b e1d2 b43c 2428 cbbd
00000280: 002e e33d 9e79 9e3d 7a68 213d ad27 ad3c
00000290: 561c 163e 94d7 a73d df13 023e d0c8 8ebd
000002a0: d51b dd3d 8aff e13d 2187 aabd 875c 87bd
000002b0: 94b3 19bd 7ad3 c7bd c777 01bd b449 e83c
000002c0: 9600 c6bd c3b0 bcbc d741 13bd 27af eabd
000002d0: ec3e 2abd 71c8 c4bd 9532 d03d 47f6 c6bd
000002e0: 0d1c c1bc 4921 17be 0d4d fb3d 6226 393d
000002f0: 4e3c 9bbd 6e2e b23d 5662 883d fa30 41bd
00000300: eebf 0dbd 7c4c b83d 410f c0bc 686d bbbd
00000310: 1b71 743d 63e8 4f3d 883c df3c da7f 72bc
00000320: 0dd3 f53d 2430 e6bd 8adc debc 9a61 3e3e
00000330: cd2c 7ebd 056e cf3d 19e2 103e b502 94bd
00000340: bf23 2b3d ef83 74bd cfb5 d43d 8668 133d
00000350: 7cdf d83d 8385 e73d 70e0 0abe 89ca d7bd
00000360: 2072 ecbd 63a9 afbd d787 ce3d ccdf 7bbd
00000370: de4e 9cbd c2d5 9b3d 40f8 4e3d 7830 6c3d
00000380: fab4 153e 64b0 9c3c e1f2 ef3c 7aa3 833d
00000390: 444b 1ebc f18e d53d 2ed1 cbbd 5a5c 17bd
000003a0: 79a6 333e 1f40 44bd ba5d f23d 1479 11be
000003b0: 479e 6cbc 519d 26bd dc48 d03d bd9e 0b3e
000003c0: 9fc4 f4bd 25be 113d 3414 aabd ff4b 7abd
000003d0: 5f47 bb3d 5044 563d 2a4a 863d 9d6e c3bd
000003e0: aea7 4d3c 469c 243d 3081 c6bd 193d 0bbd
000003f0: 2929 e93d 947e b53d 80dd cc3d 5b29 6cbd
0.08668906 0.10805267 -0.083213896 -0.124241486 0.14065777 -0.13540238 0.12270733 -0.059349127
0.09195586 -0.092955336 -0.03216988 0.0774073 0.024038777 -0.011307403 0.13008308 0.054262653
0.085336104 0.071523756 0.0511417 -0.07461006 0.07710534 0.069700986 0.0011306677 -0.092947036
0.0648184 -0.025225585 0.07289616 -0.035098672 -0.043636817 0.056559656 -0.01796873 0.065107495
-0.07300988 0.02431553 -0.14857407 -0.10271266 -0.08342007 0.042485368 -0.03190904 0.059999313
0.2606329 0.064676955 -0.036484092 -0.15286294 -0.101330124 -0.07393658 -0.0929937 0.105083436
0.06862595 -0.09057775 -0.13259122 0.04558788 0.08906456 -0.1076492 0.06622847 0.04089728
0.026395459 0.0709136 -0.065380536 0.07885347 0.048182286 0.008975916 -0.086854845 0.063324906
-0.103863716 0.050053865 -0.06302361 0.012353706 0.10318109 0.11271043 0.014316306 -0.111324474
0.06296011 0.0061595608 0.0649525 0.52014744 0.061095357 -0.16524498 0.33852866 0.23756638
-0.04478823 -0.11535479 -0.051616404 0.10386125 -0.062706016 0.069575205 0.12095673 0.06921911
-0.045584366 0.10479453 0.08834855 -0.0995901 -0.06169044 -0.10707245 -0.0026920994 0.052039184
0.015716046 0.10819435 -0.085600026 -0.059329044 -0.020450987 0.12018982 -0.06276895 -0.04150451
-0.0025657043 -0.054371282 0.10611967 -0.1347179 0.086678065 -0.064155705 0.07386458 0.16008115
0.10860201 -0.043663833 0.027428111 -0.024431529 0.13631885 0.1269802 -0.07956938 0.089479566
-0.054794114 0.08302278 -0.08223806 -0.0121528935 -0.116132274 -0.085474685 0.0013052655 -0.054151237
-0.051937953 0.017818157 -0.046086423 0.0015806443 -0.077533536 0.082111254 0.05128977 -0.08446101
-0.08524782 -0.059751827 0.10961211 0.0749716 -0.049972985 -0.03835369 -0.019599369 -0.10479157
0.050451677 -0.0935015 0.06634685 0.07797552 0.10272366 -0.09491901 0.050335445 0.12325601
-0.020633696 0.109734565 0.056344625 -0.01614545 -0.057759553 0.0032572374 0.022073211 -0.099197656
0.11092758 0.077380404 0.039406277 0.021137083 0.14659247 0.08195415 0.12702893 -0.06971896
0.10796324 0.11035068 -0.08326555 -0.06609445 -0.037524775 -0.09757133 -0.03160837 0.028355457
-0.096680805 -0.023033505 -0.03595146 -0.11459189 -0.041563913 -0.09608544 0.10165898 -0.097149424
-0.023572946 -0.14758791 0.12270556 0.04520262 -0.075798616 0.08700262 0.06659381 -0.04716585
-0.034606867 0.08998963 -0.023444774 -0.09151727 0.05967818 0.05075873 0.027250543 -0.01480099
0.12003145 -0.11239651 -0.02720477 0.1859192 -0.062054444 0.101284064 0.1414875 -0.07227079
0.041782137 -0.059696134 0.1038624 0.035988353 0.10589501 0.11304762 -0.13562179 -0.105366774
-0.11545205 -0.0857723 0.10084503 -0.061492726 -0.0763223 0.076091304 0.05052972 0.05766341
0.14619818 0.019127078 0.029290618 0.06427665 -0.009661499 0.104276545 -0.09952007 -0.036953308
0.17543973 -0.047912713 0.11834283 -0.14206344 -0.014442033 -0.040677372 0.10170147 0.13634773
-0.11951565 0.035581727 -0.08304635 -0.06110763 0.09144472 0.05231124 0.065571144 -0.09542582
0.012552185 0.040188096 -0.09692609 -0.033993814 0.11384804 0.088620335 0.10003185 -0.057656627

model.cell-0.bias_hh f4 [256]
00000000: c4eb d63d 78ac 68bd ef59 54bb 28c9 893d
00000010: e4f4 9cbd 407c 22bd 4d9a fa3d 96f4 993d
00000020: ffc7 973d 5c3b 5dbd 2ce1 b43d 041b c1bd
00000030: a183 5bbd b6e4 a2bb 8692 993d fa54 733d
00000040: 7a89 213d 011a 7a3c 3daa 77bd ab10 b53d
00000050: 764e c13c 7baf 473d a998 9ebd 334f b2ba
00000060: 9023 843d 0b13 4ebd 77ed b7bd 54c5 51bd
00000070: 93eb 193d da10 e73d 760e 1bbd a21d 383c
00000080: b2b7 81bd 95a1 dbbd dd00 713d 6408 b83d
00000090: d47f e13d 3567 6fbd 2efd 0bbd afd7 07bd
000000a0: 0e48 003e 0a82 a73d 97d6 b13d d242 0abe
000000b0: 5d61 1f3d 5d7f 253c a430 1ebe 3f45 9abd
000000c0: 2112 b33d 1739 07be 9f74 973d c193 b0bd
000000d0: e386 9f3d 47da 9abd 2359 ecbd 0854 e43c
000000e0: 18fc ea3d 4e01 c2bd 7e41 dcbc 0e75 c9bd
000000f0: 2b6c 9dbc 7a9f d7bd d646 473d 675a c8bc
00000100: 95fd ecbd 0114 723d b421 a53d 3892 a7bc
00000110: 4db8 0ebd 2d0f 76bd 5a84 4abb 4846 9e3c
00000120: 8ef4 b6bd aad3 023e f91b 113c 310b e43e
00000130: 4c42 febc e0c0 a7bd 8b95 4a3e 8b99 ed3c
00000140: 8a09 e33c 24fd bcbd ca88 913d 3b7c dd3d
00000150: a5dd 82bc 0ff9 213d 4f27 953d d724 34bd
00000160: 764e c8bc f284 0e3e 0f80 753d 4838 873d
00000170: 029b c93d 16e3 e63d f7cc b33d 5b13 e0bd
00000180: c5b3 d03d c177 2d3e 06a9 0dbe db94 9cbb
00000190: d269 f8bd 6a7d bb3d a220 c63d eb79 bcbd
000001a0: 208e 263d e260 bdbc cdce 093d 72c4 4cbd
000001b0: dea5 49bd 7e2d 133d 6fcc fb3d 5b94 143e
000001c0: 657b a1bd 5a79 22bd 5e95 733d fd12 a53c
000001d0: e3c5 c93d 12e2 d83d 10a7 993d fbac f13b
000001e0: 2647 eb3d c8ff d23d fc73 e7bd 6f7b e93b
000001f0: 75a8 f83d 6a61 bf3d a4ec 843d d40c 8f3c
00000200: 9fb4 50bd 7f3a 883d 356f e7bd a588 c43c
00000210: 0642 043e d0f5 bcbd 18c3 f43d f4ea 563b
00000220: 3f55 8dbd 77d5 03bd 452d 89bc 1ebe aebd
00000230: 6da0 12bd 9aa7 c13d ea3a 123d f10d 763d
00000240: fbcb fdbd 9dbf debd c082 b03d eff2 683c
00000250: 96d5 b7bd 116e 85bd d225 243d 6343 733d
00000260: 90f1 373d 845a b73d f835 163d 29b0 d93d
00000270: 6b65 8abd 47b5 b0ba 35b5 6f3c 7c0c 96bd
00000280: 36e8 8cbd a83b c1bd c64e 1d3c e009 d1bd
00000290: a5d9 b5bd 3f46 b3bc 52cc eb3c 1e6e fdbc
000002a0: eba5 3bbd 3c50 a2bd e75c 363d afbe ac3d
000002b0: f92c f23d 6582 23bc 0903 41bd 83a4 083d
000002c0: 7ff7 84bd 7e2d 35bd 864c 783d 8f6d 8dbd
000002d0: 8667 8a3d c3f4 013e 29cc 163d 510c bdbd
000002e0: e9a2 82bc 6982 bf3c 96f1 9d3c 87de 673d
000002f0: e33f 3c3d 764b bb3d f88e 2fbd c74a 8c3d
00000300: d0b9 223d 46eb a8bd 6e33 5b3d 673b 003d
00000310: 8df5 99bd acd3 313d 6e98 273d 01eb 403d
00000320: d207 78bb eef0 e63c 607e 743d 0b66 ea3d
00000330: 7058 be3c ca5b 48bc 9dad 553e 6f38 f63d
00000340: f71e 1c3d 03f6 963d 02ab 81bd ea12 0b3c
00000350: 39a3 9c3d e833 a8bc 0a75 9ebd 45de be3d
00000360: af74 a23d 3db8 f33c 0e73 84bd 4c4a 52bc
00000370: 3a9e bcbd c766 643d ce99 633d d093 4d3d
00000380: c6fa 133e 1654 403c 1b38 373d 8802 da3c
00000390: d821 363d c77c 38bc c21d a2bd a3b2 4abd
000003a0: e9cf 22bc 0ce7 e3bd 0b1c abbb 4425 07be
000003b0: 0e2a 253b 3841 8bbd 1627 9b39 a9f2 b6bd
000003c0: 839d a43d edf6 ddbd d105 143d e9e9 95bd
000003d0: 7402 0bbb 31db 00be f880 d6bd 5607 5cbc
000003e0: 7f24 3d3d 3cab ad3d 46b7 84bd 9a60 963c
000003f0: a756 cabd 9658 a8bd 1c09 093d 54ed cfba
0.104941875 -0.056805104 -0.0032402237 0.06727821 -0.07663897 -0.039669275 0.12236462 0.07517354
0.07411193 -0.054011688 0.088320106 -0.09428981 -0.053592328 -0.004971112 0.0749865 0.05940721
0.03943775 0.015264989 -0.060465086 0.0884107 0.023596983 0.048751336 -0.07743961 -0.0013603925
0.064520955 -0.05031113 -0.0898084 -0.051213577 0.037578177 0.11282511 -0.037855588 0.011237534
-0.06333865 -0.10724179 0.058838714 0.089859754 0.110107094 -0.058448035 -0.034176998 -0.033164676
0.12527487 0.081791 0.08683508 -0.13502052 0.038911212 0.010101167 -0.15448242 -0.07532739
0.08743692 -0.13205372 0.073952906 -0.08621932 0.077893995 -0.07561164 -0.11540439 0.0278721
0.11473864 -0.09472905 -0.026886698 -0.098367795 -0.019216618 -0.105284646 0.04865154 -0.02445717
-0.115718044 0.05910111 0.08063069 -0.020455465 -0.03484373 -0.060073067 -0.0030901642 0.019320622
-0.08933364 0.12776056 0.008856767 0.44539788 -0.031037472 -0.08191085 0.19783609 0.029003879
0.02771451 -0.0922797 0.071061686 0.10814711 -0.015974829 0.03954416 0.07282888 -0.043980446
-0.024451476 0.13917902 0.05993658 0.06602532 0.098440185 0.11273782 0.08779328 -0.10941192
0.10190538 0.16940214 -0.13834009 -0.004778487 -0.121295586 0.0915478 0.09674193 -0.092029415
0.040662885 -0.023117486 0.033644486 -0.049992032 -0.04923045 0.035932057 0.12294852 0.14509718
-0.07884864 -0.03966651 0.05946862 0.020150656 0.09852197 0.105899945 0.07502568 0.007375357
0.1148818 0.10302693 -0.11301419 0.00712531 0.12141506 0.09344752 0.06490448 0.017462172
-0.050953504 0.06651782 -0.11300508 0.023990938 0.12915811 -0.092265725 0.11951274 0.0032793852
-0.06901025 -0.032185998 -0.016745219 -0.08532356 -0.035797525 0.094557956 0.035700716 0.06007189
-0.12392422 -0.10876391 0.086186886 0.014218076 -0.08976285 -0.06515134 0.04007513 0.059390437
0.044908106 0.08952811 0.036672562 0.10629303 -0.06757625 -0.0013481759 0.0146306055 -0.073266
-0.06880228 -0.09435207 0.009601301 -0.10206962 -0.08879403 -0.021884082 0.028783951 -0.030936297
-0.04581253 -0.0792546 0.044522192 0.084348075 0.11824984 -0.009979819 -0.047122035 0.033360016
-0.06492519 -0.044232838 0.060619853 -0.06905662 0.06758027 0.12691025 0.036815796 -0.09230865
-0.015946822 0.023377614 0.019280236 0.056608703 0.045959365 0.091452524 -0.042860955 0.068502
0.039727986 -0.08248 0.053515844 0.03130665 -0.07517538 0.043414757 0.040916853 0.047099117
-0.0037846458 0.028191056 0.059690833 0.114452444 0.02323553 -0.0122289155 0.2086701 0.120224826
0.038115468 0.07371142 -0.06331445 0.008488396 0.0764832 -0.020532563 -0.07737167 0.09319738
0.07932412 0.029750938 -0.064672574 -0.012835097 -0.09209867 0.05576208 0.0555666 0.050189793
0.14451131 0.011738798 0.04473124 0.026612535 0.04446587 -0.011260218 -0.07915832 -0.049486768
-0.009937265 -0.11128053 -0.005221849 -0.1319781 0.0025202069 -0.06799549 0.00029593025 -0.089330025
0.080378555 -0.10838113 0.03613836 -0.073200054 -0.002121118 -0.12583615 -0.104738176 -0.013429483
0.046177384 0.08479926 -0.06480269 0.01835661 -0.09879809 -0.082200214 0.033455953 -0.0015863576

model.h0-1.weight f4 [128, 4]
00000000: 8bd6 ab3d 9ff3 c73d debe 10be 2112 91be
00000010: 708c 033f 2d7b f23d cc48 083e 2637 8d3e
00000020: 4382 ef3d 72cd d83c ea61 8abc a072 9abe
00000030: de66 26bd 08e7 d53e d58d ddbe 606c cbbe
00000040: 6517 333e b9fd 49bd b950 e73e deef eabd
00000050: 74f3 ebbe 330f 29be d506 cebe eb06 e73e
00000060: 392b d83e cdcd 983e 0eef e1bd 3442 2e3e
00000070: 59a0 9bbe efe4 ac3e 154b 883e ddcc 603e
00000080: 0d53 9abe 51a9 c53d 6983 c33d b57a b03d
00000090: fef3 dc3e 7953 e2bd ff19 afbe 3857 033f
000000a0: ac12 ed3e 2360 dbbe c086 5c3c e564 3dbe
000000b0: 9805 073e b9de 473e 9dcb 213e 0746 b43e
000000c0: 9fb7 f13d ddc7 6bbe 0bc0 e33e 7231 8abe
000000d0: 2d40 c0bd dbd5 4abd 09f8 b9be dfae bcbe
000000e0: ce7b fd3c cdc3 ab3e 5122 f43e cbe5 ecbe
000000f0: 94c3 833d fc5b 7d3e 0e21 8f3c 3643 01bf
00000100: 7e65 27be 5a80 a7be fe51 323e ebc7 13be
00000110: 46f6 6b3e 53c4 9abc 98ff d7be ccae 4bbe
00000120: b733 013f 03cf 51be 6c55 3bbe fc55 c2be
00000130: 513f cabe 47c4 de3e 1dd0 d7bd c6bb 4ebe
00000140: 8d18 163e 2c14 87be afaa d7be 2c56 0e3d
00000150: 46cd b8be 09c2 103f 797c 3bbe 736c 40be
00000160: fa59 1e3e 9093 dd3e 03a6 ed3d f778 c7bd
00000170: 934a 5bbd 8060 59be a5f6 49be 33c6 303e
00000180: aac6 d93e 64a0 c4be 71cf 933d 604d 01be
00000190: ad2b 423e ac33 813d 8b35 f03e 5f2c c0be
000001a0: 79f8 ddbd e25c 61be da1c 45be 203e 993d
000001b0: 7d9a d4be c55f 95bd eb36 bdbd 0521 333e
000001c0: eb39 ab3e 98bd 01bc a3f3 493e 7f93 313d
000001d0: 8643 b33d d0d4 f9bd 046e 023e 1419 d13e
000001e0: 7f36 d93d 3ada a63e 3c57 9fbe 56d4 02bf
000001f0: e5ad eebd daef 543e ddfa 0bbe 7110 c3bd
00000200: ef20 53be 104c 0fbf 6790 18be b9fb c53e
00000210: e7cb b8be dddc e1be f408 983e bde1 73be
00000220: 63b6 7b3e fb02 b63e 019b 65be df74 79be
00000230: 9452 883e 0d5d f2bd f25d a8bd 9e27 eebe
00000240: 9948 f9be 747d 863e 3bf4 e83e 114a debe
00000250: 00d3 1ebe c7d9 79bc dfef a6be 94e1 4dbe
00000260: ca2f a3be 9bb7 f1be 5e4b 62bd 027a 29be
00000270: 3396 a53e 1656 ba3e c305 9bbc 461b 90bd
00000280: 9468 df3e b044 bbbe 49de eebe 1841 ebbd
00000290: 6f34 9bbe 5fab bfbc d939 87be 7de0 c8be
000002a0: 04a8 ee3d 3726 983e c4ad a03e 65b5 acbe
000002b0: 84a4 e7be 6d25 233e 695f f7be badc 063e
000002c0: b633 b43e 2aed a0bd ef38 85be dc2e 003f
000002d0: 5ba3 273e 7fdf cc3e da32 413e 8572 df3d
000002e0: acf2 c23d 2bbd 03be 19f8 e03e f99e cdbe
000002f0: 3f4a 483c 79c4 81bc 266a 18be 9df6 bd3e
00000300: 8e99 85be aaf1 82be 6c9b eabe 63d1 973e
00000310: c5cd a3be c21d 743e 4e96 943d c5b9 323e
00000320: 7f8b 8d3e 70dd cfbe fc30 88be 297b 0d3e
00000330: b1f5 da3e c464 f2be a1ad 833e 6ae0 aabe
00000340: 50e3 bfbd d3f7 9e3e dcfe 423e 79be 9dbe
00000350: 4f64 49be 3bf8 a7be dfca 82be bce6 6bbe
00000360: fd8b 573e 95a1 a5be 482f cb3e d03e b93e
00000370: 3dd1 5d3e 1dd3 4a3e 1ec3 723d 6d03 68bd
00000380: 6287 e93e 5aa9 e63e bc62 93bd c6b7 77be
00000390: ba5a 1fbe 3e69 b9be 11a5 a93d ce07 55be
000003a0: 5f2f a0be 0db6 7f3e b932 1abd 0fdf 9f3d
000003b0: c2cf 063f 7433 26be 1f98 bbbc aefd f43a
000003c0: 75e4 b9be 9284 f9be aead dc3e 4425 aa3d
000003d0: 4dc7 8abe 1aa0 83be 9498 bcbe 15a3 97be
000003e0: 7256 fdbb 0b7e 9dbe 12c1 fb3e 9f68 60bd
000003f0: 7777 9e3d f1a7 8abe eaf3 cf3e 39df 2dbe
0.0839053 0.09763264 -0.1413531 -0.28334144 0.51386166 0.118399 0.1330902 0.27581137
0.11694767 0.026465151 -0.016892392 -0.30165577 -0.040625446 0.41777825 -0.43272272 -0.3973112
0.17489393 -0.049314234 0.45178774 -0.11471532 -0.46084177 -0.16509704 -0.40239587 0.45122465
0.42220476 0.29844514 -0.11031924 0.17017442 -0.30395773 0.33768412 0.26619783 0.21953149
-0.30141488 0.09651435 0.09546549 0.086171545 0.431549 -0.110510774 -0.3419952 0.5130496
0.46303308 -0.42846784 0.013459861 -0.1849552 0.13185728 0.19518556 0.15800329 0.35209677
0.11802601 -0.2302546 0.44482455 -0.2699085 -0.093872406 -0.049520355 -0.36322048 -0.36852166
0.030942824 0.33547822 0.4768243 -0.46269068 0.06433788 0.2474212 0.017471816 -0.5049318
-0.1634731 -0.32715112 0.1741409 -0.14431731 0.23043165 -0.018892443 -0.4218719 -0.19890898
0.50469536 -0.20489125 -0.18294305 -0.37956226 -0.39501432 0.43509123 -0.10537741 -0.20188817
0.14657803 -0.26382577 -0.4212241 0.03475015 -0.3609411 0.56546074 -0.18309201 -0.1879137
0.15464011 0.43276644 0.1160393 -0.09739869 -0.053537916 -0.21228218 -0.19722994 0.17263107
0.4253438 -0.38403618 0.07217301 -0.12627172 0.18961973 0.06308684 0.4691585 -0.37533852
-0.10838408 -0.22008088 -0.19249287 0.074825525 -0.41524115 -0.07293657 -0.092389904 0.17493065
0.33442625 -0.007918738 0.19721846 0.043353554 0.087531134 -0.12198794 0.1273728 0.40839446
0.106060974 0.3258837 -0.31121242 -0.5110525 -0.116542615 0.20794621 -0.13669915 -0.0952462
-0.20618032 -0.5597544 -0.14898835 0.38668612 -0.36093065 -0.44113818 0.2969433 -0.23816581
0.24581294 0.3554915 -0.2242241 -0.24360989 0.26625502 -0.11834154 -0.08221044 -0.465146
-0.486882 0.26267588 0.45498833 -0.43415883 -0.15510178 -0.015249676 -0.32604882 -0.20105582
-0.31872398 -0.47210392 -0.055247657 -0.16550449 0.32341155 0.36393803 -0.018923646 -0.07036452
0.43634474 -0.36575842 -0.46653965 -0.11487025 -0.3031344 -0.023397146 -0.26411322 -0.3923377
0.1165314 0.29716656 0.31382573 -0.33732143 -0.45242703 0.15932246 -0.4831498 0.13170138
0.35195702 -0.078577355 -0.2602 0.500715 0.16370909 0.40014264 0.18867055 0.10910515
0.09518942 -0.1286513 0.43939283 -0.4016035 0.012224733 -0.015840756 -0.14884242 0.37102214
-0.26093715 -0.25575 -0.45821702 0.29651937 -0.31992927 0.23839477 0.07255231 0.17453678
0.2764549 -0.4059863 -0.26599872 0.13816513 0.42765573 -0.47342503 0.25718406 -0.3337434
-0.09369528 0.3104845 0.19042534 -0.30809382 -0.19667171 -0.32806572 -0.25545403 -0.23037237
0.21049495 -0.3234984 0.3968451 0.36180735 0.2166185 0.19807096 0.05926811 -0.056643892
0.456111 0.4505108 -0.071965665 -0.24191198 -0.15561953 -0.36213106 0.08283437 -0.20803759
-0.3128614 0.2497179 -0.03764603 0.07806217 0.52660763 -0.16230565 -0.022899685 0.0018691325
-0.3630711 -0.48733956 0.43101257 0.08307889 -0.2710518 -0.25708085 -0.36835158 -0.2961661
-0.0077312523 -0.30760226 0.49170738 -0.054787274 0.0773763 -0.27081254 0.4061578 -0.16979684

model.h0-1.bias f4 [128]
00000000: fd09 5a3e 14b5 b2be fe52 92bd 2d37 2d3e
00000010: 0d65 92be ebc9 e0bc 20ce 57be aeaa 113e
00000020: 8548 ca3e 4a66 6bbe c375 c6be 6914 03bf
00000030: 7744 efbe 6f0a 923e 83fc 6b3d d6f6 dfbd
00000040: 283e ef3e d495 f8bd 2a10 76be 00b9 a53c
00000050: 4f54 d7be 95eb 69be 5ce5 f1be e1d2 a43e
00000060: 936a c8be 456b 673e 7e78 573e e563 08bb
00000070: ad28 a4be dbff efbc 1718 bb3e f877 dd3e
00000080: f4cc 933e 9fef 4c3e 8599 6abe 9af7 2c3e
00000090: 83ca 52bd f8cf ca3d 40b1 e5bc 72a4 8fbe
000000a0: b3b4 07be 0eb5 b7be 8cf2 eebd 70a2 edbe
000000b0: d246 d0bd 7f53 ba3e c333 8c3d 8ab7 8bbe
000000c0: 597c 8b3e 26db 97be 086b 41bd 83d2 8a3e
000000d0: c094 c43d e325 c03e a78e 3f3e e708 d7be
000000e0: 2d8d c33e 4eca 9d3e e425 cdbe 9176 92be
000000f0: ec7b 9e3e 9d35 a43e 66ab 5f3d 1d3f 0c3e
00000100: 7a8c a7bc 1fb3 013f afed 10be cd19 c53e
00000110: 7c99 743d 288d 613a 6227 cdbd 91bc a43d
00000120: 2ae3 a13e a96a 363e 7a2d 51b9 71aa db3e
00000130: e294 d4be cd65 4bbe 47eb 65bd 3ca9 efbe
00000140: a5bb c2be 006d 31be 7c5c 8c3e 3641 6b3e
00000150: 3536 de3e 3de6 adbd b151 78be 0e1b d43e
00000160: 18f1 fbbe 095a 583e e2cd 6d3e 3f8b c5be
00000170: a4d2 8c3e f69f a6be 53a8 b7bd 678e 2a3d
00000180: 110d a43e c97f f3be 8b97 ccbe 37fd 1fbd
00000190: 2bab 8b3e 8204 5ebe a6a7 f13d a90c 783d
000001a0: 5d60 c6bd 95e1 d43e 693f b03e bcc2 19bd
000001b0: 4561 febe 0d7a 83be 0bae 61be 883a a0be
000001c0: 58f3 e0be 0d4a 57be e3a0 b53e 0130 e43e
000001d0: dc39 bcbd 9dcc cdbd 7890 cbbd 21a1 b1bd
000001e0: d44a 143e e05d a93e 318d ce3d 0e14 9eba
000001f0: 7335 b4be 4a12 bd3e f896 593e 077a acbc
0.21292873 -0.34903777 -0.07144736 0.16915579 -0.2859272 -0.027440032 -0.21074724 0.14225265
0.39508453 -0.22988239 -0.3876172 -0.5120302 -0.46731922 0.28523585 0.05761386 -0.10935752
0.4672711 -0.121379524 -0.24029604 0.020229816 -0.4205651 -0.22843774 -0.472453 0.32192138
-0.3914381 0.22599514 0.21042058 -0.0020811495 -0.32062283 -0.029296806 0.36541817 0.4325559
0.28867304 0.20013283 -0.22910126 0.16891328 -0.05146266 0.09902948 -0.028038621 -0.2805515
-0.13252525 -0.3588032 -0.11667356 -0.46412992 -0.10169758 0.36391827 0.0684581 -0.27288467
0.27243307 -0.29659384 -0.047221214 0.27113733 0.09598684 0.37528905 0.18706761 -0.4199898
0.38193646 0.3081841 -0.4006797 -0.28606084 0.3095392 0.32072154 0.054606818 0.13695951
-0.020452727 0.5066394 -0.14153169 0.38496247 0.059716687 0.0008604103 -0.10017277 0.08043779
0.31618625 0.17814125 -0.00019948735 0.42903474 -0.4151984 -0.19863053 -0.05613258 -0.46808803
-0.38033786 -0.17326736 0.2741431 0.22974095 0.43400732 -0.0849118 -0.24249913 0.4142689
-0.49207377 0.21128096 0.2322307 -0.385828 0.27504456 -0.32543916 -0.08967652 0.04163971
0.3204122 -0.4755843 -0.39959368 -0.039059844 0.27279028 -0.21681407 0.117995545 0.06055895
-0.096863486 0.41578355 0.34423378 -0.03753923 -0.49683586 -0.25679055 -0.22039048 -0.31294656
-0.43935657 -0.21024342 0.3547431 0.44567874 -0.09190723 -0.100487925 -0.099396646 -0.08673311
0.1448167 0.33079433 0.10085524 -0.001206042 -0.3519703 0.36928016 0.21248996 -0.02105428
