HW2_nn_train/state_dict.pth (torch, 706274 bytes, 9 tensors)

net.0.weight f4 [512, 5]
0	0x3e94b78a	0.2904628
1	0xbe58ee80	-0.2118473
2	0xbed79b7e	-0.4211082
3	0x3e6c20d1	0.23059393
4	0x3eb7b00d	0.35876504
5	0x3dcd1dc7	0.10015445
6	0xbe0f70db	-0.14007895
7	0x3e8a0054	0.26953375
8	0x3e3f3b06	0.1867486
9	0x3d9c56f0	0.076337695
10	0xbb0734c2	-0.0020630811
11	0x3ce42ce2	0.027853433
12	0x3dac2f50	0.08407462
13	0x3e0f54a2	0.13997129
14	0x3cc91da3	0.024550265
15	0x3d064cb8	0.03278801
16	0xbc89c1b3	-0.016815996
17	0xbba262a0	-0.0049556047
18	0x3e9643ca	0.29348594
19	0xbe53fbb1	-0.20701481
20	0x3e289fc6	0.16467199
21	0x3e9d449b	0.30716404
22	0xbe1f1082	-0.15533641
23	0x3d5847be	0.052802794
24	0xbeb34cda	-0.3501957
25	0x3e7aa6c1	0.24477674
26	0x3e7845dd	0.242454
27	0x3eaeb4e4	0.34122384
28	0xbd4a19ad	-0.049340893
29	0x3e7912a2	0.24323514
30	0xbed68ac1	-0.41902736
31	0xbe4b87ee	-0.19876072
32	0xbf00694f	-0.5016069
33	0x3eb85f42	0.36010176
34	0x3e9c9581	0.30582812
35	0x3ea32e48	0.31871247
36	0x3e2c2dc6	0.16814336
37	0x3e46059b	0.19338076
38	0xbe2e7095	-0.17035134
39	0x3e89e401	0.26931766
40	0xbd658b8b	-0.05604128
41	0xbe3c2719	-0.1837429
42	0x3e9e7e5d	0.30955783
43	0xbebd4ff5	-0.36975065
44	0x3cf984b5	0.030458787
45	0x3d8abdf0	0.06774509
46	0x3e8b1e5c	0.271716
47	0x3c001d9f	0.007819562
48	0xbcd9a594	-0.026568212
49	0xbe1b2f5e	-0.15154788
50	0xbebd527f	-0.36977002
51	0xbe3d7126	-0.18500194
52	0xbcf32351	-0.029679926
53	0x3d1318f0	0.035912454
54	0x3ea273a8	0.31728864
55	0x3ef33f91	0.47509435
56	0x3ecb3625	0.39689746
57	0x3e996755	0.2996165
58	0xbda0b273	-0.078465365
59	0x3e8f567a	0.27995664
60	0x3e611266	0.21979675
61	0x3ed07342	0.40712935
62	0x3eba16f5	0.3634564
63	0xbadf39ae	-0.001703074
64	0x3e4d75b2	0.20064428
65	0xbe9d9903	-0.307808
66	0x3c98b5c6	0.018641364
67	0xbe76d80f	-0.24105857
68	0xbbdecb88	-0.006799165
69	0xbd94e3fd	-0.07270048
70	0xbecb9e65	-0.39769283
71	0x3e8db1d5	0.27674738
72	0x3e927536	0.2860505
73	0xbe135ed3	-0.14391641
74	0xbe4d73de	-0.20063731
75	0xbf29eeca	-0.6637999
76	0x3cd089ca	0.025456328
77	0xbed793a7	-0.42104837
78	0xbe3a55f3	-0.1819685
79	0x3d9f349b	0.077737056
80	0xbf17650d	-0.59138566
81	0xbea8288a	-0.3284343
82	0x3e49e7ce	0.19717333
83	0x3c4d5c9a	0.012534285
84	0x3eabf5f6	0.3358609
85	0x3e7311e2	0.2373729
86	0x3e99ba39	0.3002489
87	0x3e8107d1	0.25201276
88	0x3e2acd12	0.1667979
89	0xbe81bc98	-0.25339198
90	0xbea00626	-0.3125469
91	0x3e985e4a	0.29759437
92	0xbe8b341a	-0.27188188
93	0xbdf57a62	-0.11986233
94	0xbe8ebe62	-0.27879626
95	0xbead80f6	-0.33887452
96	0x3e11a1f3	0.14221935
97	0xbca64101	-0.020294668
98	0x3e07f18d	0.13275738
99	0x3e815f4a	0.25268012
100	0x3e64cae2	0.22343019
101	0x3dd710be	0.1050124
102	0xbed89a8c	-0.4230541
103	0x3e400723	0.18752722
104	0xbe834847	-0.2564108
105	0xbeb26736	-0.3484437
106	0x3e5e6ce9	0.21721233
107	0x3d429db5	0.047513682
108	0x3c271e5b	0.010200108
109	0x3e45deda	0.19323292
110	0x3e32d6ff	0.17464827
111	0xbe27f370	-0.16401458
112	0xbd917a42	-0.07103397
113	0xbd469e5c	-0.048490867
114	0x3e77e0dd	0.24206872
115	0x3cf1c393	0.029512202
116	0xbec5dc2c	-0.3864454
117	0xbdfa2a60	-0.12215114
118	0x3e440b95	0.19145043
119	0xbe816d9b	-0.25278935
120	0x3e93a547	0.28837034
121	0x3da00eff	0.0781536
122	0x3e897695	0.26848283
123	0x3e3dffc0	0.18554592
124	0xbb713449	-0.0036804846
125	0x3eb89208	0.36048913
126	0xbdcb4c49	-0.099266596
127	0x3e2e1ece	0.17003939
128	0xbd398974	-0.0452971
129	0xbdbfc89b	-0.09364434
130	0x3ed76b41	0.42074016
131	0xbd6e58a1	-0.05818999
132	0x3daf002f	0.08544957
133	0xbe161f17	-0.14660297
134	0xbec7247e	-0.3889503
135	0x3ec6ce9a	0.388295
136	0x3e28f5d9	0.16500033
137	0xbe80ec99	-0.2518051
138	0xbedbc197	-0.42921135
139	0xbeaf5232	-0.34242398
140	0xbc773201	-0.015087605
141	0x3e100377	0.14063822
142	0xbec88419	-0.39163283
143	0xbe06d348	-0.13166535
144	0x3e2f4db4	0.17119485
145	0x3dfb18a3	0.122605585
146	0xbe8ea7c1	-0.2786236
147	0xbcc2b6aa	-0.023768742
148	0x3e3fb2d3	0.1872056
149	0xbe9f440d	-0.31106606
150	0x3e0a865b	0.13527815
151	0x3cea16aa	0.02857526
152	0xbe42d042	-0.19024757
153	0xbe4e17e2	-0.20126298
154	0xbe8ad5c3	-0.27116212
155	0x3de66e75	0.11251537
156	0x3dedf4e8	0.11618978
157	0x3ec35a8a	0.38155013
158	0xbeda2367	-0.42605135
159	0x3e5a5597	0.21321712
160	0x3e737f88	0.23779118
161	0xbe237157	-0.15961204
162	0x3ddaaac0	0.10677099
163	0xbdca1890	-0.09867966
164	0x3eabe02d	0.3356947
165	0xbd9bb393	-0.076026104
166	0x3e5ae5a2	0.2137666
167	0x3f149014	0.58032346
168	0x3e127ef0	0.14306235
169	0x3eb9386e	0.36175865
170	0xbf03a0d6	-0.5141729
171	0x3e560d72	0.20903566
172	0xbeb29501	-0.34879306
173	0xbd1c60ff	-0.03817844
174	0x3def1f6d	0.11675916
175	0x3daa5043	0.0831609
176	0xbc82d8a0	-0.015972435
177	0x3ec191d7	0.3780658
178	0xbbc62215	-0.0060465434
179	0xbd2fa257	-0.04287943
180	0xbeea06ae	-0.4570822
181	0xbea07c2d	-0.3134474
182	0x3ddd11e2	0.107944265
183	0x3eb77c22	0.35836893
184	0xbebacae5	-0.3648292
185	0x3e562c63	0.2091537
186	0xbd42078f	-0.04737049
187	0x3e517c0c	0.20457476
188	0x3e27a0e2	0.16369966
189	0xbde7467f	-0.11292743
190	0xbe9f425c	-0.31105316
191	0xbeca8ec0	-0.39562035
192	0x3d96dba5	0.073661126
193	0x3c25e7b4	0.010126043
194	0xbf12c069	-0.57324845
195	0xbe57b6db	-0.21065848
196	0x3e7e5b7e	0.24839589
197	0x3ce25cc4	0.027632125
198	0x3e024b1f	0.12723969
199	0x3ce973ed	0.02849766
200	0xbec4c98c	-0.38435018
201	0xbebc0ad1	-0.36727002
202	0x3c97c6ae	0.018527355
203	0x3e8d182c	0.27557504
204	0xbe0cce66	-0.1375061
205	0xbea55818	-0.32293773
206	0xbed86667	-0.42265627
207	0xbec7a201	-0.38990787
208	0x3e95443f	0.2915363
209	0xbe9db81d	-0.3080453
210	0xbe4dca2c	-0.20096654
211	0x3e8a2ba0	0.26986408
212	0xbe8213f4	-0.25405848
213	0x3e509bb0	0.2037189
214	0x3bf1ca0e	0.007378823
215	0xbe8b5a03	-0.2721711
216	0x3e6611a8	0.22467673
217	0x3efc68d7	0.49298736
218	0x3ea57c56	0.32321423
219	0x3e2fe9a7	0.17178975
220	0x3db2a74b	0.08723315
221	0x3eb0cefc	0.34532917
222	0x3df2dde6	0.1185873
223	0xbe211a90	-0.15732789
224	0xbce198bf	-0.027538655
225	0x3ebf6840	0.37384224
226	0xbe0ec1f0	-0.13941169
227	0x3e227f97	0.15868984
228	0xbe1e91cd	-0.15485306
229	0xbe22cb60	-0.15897894
230	0x3e6db442	0.23213294
231	0xbea43a4b	-0.32075724
232	0xbe9154bc	-0.2838496
233	0x3e04f583	0.1298428
234	0xbdd9d236	-0.10635798
235	0xbd21d0ea	-0.039505877
236	0xbdf62b91	-0.120200284
237	0xbe1991e6	-0.14997062
238	0x3ec3162c	0.38102853
239	0x3ca40f48	0.020026818
240	0x3e556e64	0.20842892
241	0x3e535a0b	0.20639817
242	0xbe77aa91	-0.2418616
243	0xbe96caaf	-0.2945151
244	0xbdc488b7	-0.09596389
245	0xbe14cff0	-0.14532447
246	0xbd85b76f	-0.06529128
247	0x3def4686	0.11683373
248	0x3e7c416f	0.24634336
249	0xbea1f2ff	-0.31630704
250	0xbe8853fc	-0.26626575
251	0xbdade6b7	-0.08491271
252	0x3e25b4fe	0.16182324
253	0x3eaff4b3	0.34366378
254	0x3d17ab38	0.03702852
255	0x3e5fed5b	0.21867888

net.0.bias f4 [512]
0	0xbc2a5515	-0.010396262
1	0xbedb9812	-0.42889458
2	0x3e30d4f2	0.17268732
3	0x3c6c5ac9	0.014425942
4	0x3eacdfff	0.33764645
5	0xbc86fed1	-0.016478928
6	0xbe636088	-0.22204792
7	0xbe3ba848	-0.18325913
8	0xbe9984c1	-0.29984096
9	0x3e9bbbae	0.30416626
10	0xbcb7d2f1	-0.022439452
11	0xbdbbe5b2	-0.0917467
12	0xbe092e32	-0.13396528
13	0x3c18c9a5	0.00932542
14	0x3dfb2a38	0.12263912
15	0xbedde8d2	-0.4334169
16	0xbea0da85	-0.31416717
17	0xbe85f9b7	-0.2616708
18	0xbebee056	-0.3728053
19	0xbec7752f	-0.3895659
20	0xbead99f3	-0.33906516
21	0xbecff294	-0.4061476
22	0x3eae6b96	0.34066457
23	0x3d9b99c5	0.075976886
24	0x3ec8ae9d	0.3919572
25	0x3e41cf98	0.18926847
26	0xbeb1deef	-0.34740397
27	0xbe6b3305	-0.22968681
28	0xbe2007a1	-0.1562791
29	0xbd4d6de4	-0.050153628
30	0xbe8873d2	-0.26650864
31	0xbd228e91	-0.039686743
32	0xbe810ed3	-0.25206622
33	0xbe74cffb	-0.23907463
34	0x3d97fbeb	0.074210964
35	0x3ec1b30a	0.37831908
36	0xbea37ec4	-0.31932652
37	0x3f016fdd	0.50561315
38	0xbdcdec14	-0.10054794
39	0x3c471b33	0.012152481
40	0xbe4f6f33	-0.20257263
41	0x3e387d0a	0.18016449
42	0xbe8913d7	-0.2677295
43	0xbe99fbbb	-0.30074868
44	0xbd6e6908	-0.058205634
45	0x3e4a69eb	0.19766967
46	0xbe146ef5	-0.14495452
47	0xbec4596f	-0.38349482
48	0xbd92e1ac	-0.0717195
49	0xbec3513f	-0.38147923
50	0x3ed5a588	0.41727853
51	0x3e8d075e	0.27544683
52	0xbe4c06fe	-0.19924542
53	0x3d5ad120	0.053422093
54	0xbeef3533	-0.46720275
55	0x3d4cd214	0.050005034
56	0xbe43f9f4	-0.19138318
57	0x3e8950bc	0.26819408
58	0xbe51252f	-0.2042434
59	0x3ee06090	0.4382367
60	0xbe8e5fc2	-0.27807432
61	0x3f0942df	0.5361766
62	0xbeaa28b6	-0.33234185
63	0xbdf09b49	-0.11748368
64	0xbe63423f	-0.2219324
65	0xbec34231	-0.38136438
66	0xbce5074a	-0.027957577
67	0xbe822d88	-0.25425363
68	0x3de89b46	0.11357741
69	0x3e708876	0.23489556
70	0xbf05ffb2	-0.52343285
71	0xbe2944f5	-0.16530211
72	0xbe9acba5	-0.30233493
73	0x3e676e21	0.22600605
74	0xbe4b890f	-0.19876502
75	0xbee201a9	-0.44141892
76	0xbe96c3cc	-0.29446256
77	0xbec756d0	-0.3893342
78	0xbece7ea7	-0.40331003
79	0x3e21e102	0.1580849
80	0xbe67553c	-0.22591108
81	0x3e928072	0.2861362
82	0x3ed77211	0.42079213
83	0xbef36ae4	-0.4754249
84	0xbe7b7fe7	-0.2456051
85	0xbeb7a5ba	-0.35868627
86	0xbebc6352	-0.36794525
87	0xbef6c926	-0.4820034
88	0x3d254399	0.04034767
89	0xbe2a0c22	-0.16606191
90	0xbdcc85e9	-0.09986479
91	0x3e1f9870	0.15585494
92	0xbea86c9a	-0.32895356
93	0xbe85c8e1	-0.2612982
94	0xbec2cbd3	-0.3804613
95	0x3cd54413	0.026033437
96	0x3dca46a4	0.09876755
97	0x3e8035b1	0.25040963
98	0xbedbbd38	-0.429178
99	0x3e83fcd4	0.2577883
100	0x3bc7d3c5	0.006098243
101	0xbef62ec9	-0.4808257
102	0xbdea8531	-0.114511855
103	0xbe4fe149	-0.20300783
104	0xbeac843f	-0.33694646
105	0xbee92cc8	-0.45541978
106	0xbef04c17	-0.46933052
107	0x3d51e383	0.051242363
108	0xbe29b7b2	-0.1657398
109	0xbec38662	-0.38188463
110	0xbe11fac4	-0.14255816
111	0x3d83979b	0.06425401
112	0x3ef5226c	0.47877824
113	0xbefd2d63	-0.4944869
114	0xbeb9bd91	-0.3627744
115	0x3de1f5a2	0.11033179
116	0xbeeac4f9	-0.45853403
117	0xbcff24dd	-0.031145507
118	0x3eb1004b	0.34570536
119	0x3e49e62c	0.1971671
120	0xbe5d1b3f	-0.21592425
121	0xbe4a9abb	-0.19785587
122	0xbea39f59	-0.3195751
123	0xbee5ad53	-0.44858798
124	0x3d582be6	0.05277624
125	0xbee9810b	-0.45606264
126	0xbe8a5fee	-0.27026314
127	0xbecc2a2e	-0.3987593
128	0xbd68fb90	-0.056880534
129	0xbe7e1f4e	-0.2481663
130	0x3ea41223	0.32045087
131	0xbe923080	-0.28552628
132	0x3c792117	0.015205643
133	0xbe8974bc	-0.26846874
134	0xbe6214b2	-0.22078207
135	0xbecb913a	-0.39759237
136	0x3e27fd4f	0.16405223
137	0xbe1f3ba6	-0.15550098
138	0xbeb25984	-0.3483392
139	0xbed2f240	-0.41200447
140	0xbed9ba62	-0.4252501
141	0xbea75e64	-0.32689202
142	0xbe6fdd7d	-0.23424335
143	0xbe93ff04	-0.289055
144	0x3df30c65	0.118675984
145	0xbddb5bb4	-0.1071085
146	0xbe96bd47	-0.29441282
147	0x3e64c29f	0.22339867
148	0x3e4156cc	0.18880767
149	0xbec0451c	-0.37552726
150	0xbe1ab92f	-0.15109704
151	0x3eab63a8	0.3347447
152	0x3e351570	0.17683959
153	0x3c802246	0.015641343
154	0xbdc77696	-0.09739415
155	0xbdf6fd70	-0.12060058
156	0x3e1ce7c2	0.15322784
157	0xbee29f34	-0.44262087
158	0xbe8732b9	-0.26405886
159	0xbeb7d965	-0.35908046
160	0x3dda05a3	0.10645606
161	0xbed4f631	-0.4159408
162	0xbebdabb6	-0.37045068
163	0xbe86459d	-0.26224986
164	0xbec4643f	-0.38357732
165	0x3d9d41a6	0.07678537
166	0xbec75cee	-0.38938087
167	0xbd9d29b2	-0.076739684
168	0xbe55c95a	-0.20877591
169	0x3dbcd6cc	0.09220657
170	0x3e8283f2	0.2549129
171	0x3e8ca6e8	0.2747109
172	0x3e8ed4c7	0.2789671
173	0xbe8b2818	-0.27179027
174	0xbdd87ca7	-0.105706505
175	0x3e5107db	0.20413153
176	0x3ebf7496	0.37393636
177	0x3f016121	0.5053883
178	0x3d0aadbf	0.033857103
179	0xbdb81fa7	-0.08990412
180	0x3eb65b0c	0.35616338
181	0x3e8b176f	0.27166316
182	0x3ebd3f53	0.36962375
183	0xbd59c0d8	-0.053162426
184	0xbed1d79c	-0.4098481
185	0x3d596860	0.053078055
186	0x3df2c04a	0.118530825
187	0xbcb3232b	-0.021867355
188	0x3d705b58	0.058680862
189	0x3bb8b46b	0.005636742
190	0x3e41cb1f	0.18925141
191	0x3e760f67	0.24029313
192	0xbe98f111	-0.2987142
193	0x3d8820cf	0.06646883
194	0xbe54c2a6	-0.20777377
195	0xbd84f255	-0.06491534
196	0xbcb81911	-0.02247289
197	0xbe40cfb1	-0.18829228
198	0xbed2d309	-0.41176632
199	0xbebedfeb	-0.3728021
200	0xbed99596	-0.42496938
201	0x3ed2a786	0.41143435
202	0x3e9b594e	0.30341572
203	0xbe4db933	-0.20090179
204	0x3ecc7372	0.39931828
205	0xbd7d8076	-0.061890088
206	0xbf0ca8a2	-0.54944813
207	0xbe45281c	-0.19253582
208	0x3e20ad8c	0.15691203
209	0x3e93ec88	0.28891397
210	0x3ef5372b	0.47893652
211	0x3e9590e9	0.2921212
212	0x3eadb2a9	0.3392537
213	0xbe409cae	-0.18809769
214	0xbd7699c8	-0.06020525
215	0xbe303c09	-0.17210402
216	0xbe89ea10	-0.26936388
217	0xbd8fd50e	-0.07023059
218	0xbdd4b592	-0.10386194
219	0xbf12c8cc	-0.5733764
220	0xbea9b1a6	-0.33143348
221	0x3e60924d	0.2193081
222	0x3ddc7eb9	0.10766358
223	0x3ea93d4d	0.3305458
224	0xbd8d3646	-0.068951175
225	0xbef22be4	-0.4729911
226	0xbeae515d	-0.3404645
227	0xbe711a38	-0.23545158
228	0xbe291661	-0.16512443
229	0xbe666143	-0.2249804
230	0xbd0ebb46	-0.034846567
231	0xbe808d06	-0.25107592
232	0xbeebb93f	-0.4603977
233	0xbe568f89	-0.20953192
234	0xbef43470	-0.47696257
235	0xbec725e8	-0.38896108
236	0xbead2c22	-0.33822733
237	0x3ee8303f	0.4534931
238	0xbeef58fc	-0.46747577
239	0xbe5971e2	-0.21234849
240	0xbd85e286	-0.065373465
241	0x3e318521	0.17335941
242	0xbe6db5be	-0.2321386
243	0xbefa5a34	-0.48896945
244	0xbe8da213	-0.27662715
245	0x3d4795b9	0.04872677
246	0xbefaac70	-0.48959684
247	0x3db418a1	0.0879376
248	0xbe9edf90	-0.3102994
249	0xbe42c40d	-0.190201
250	0xbe67d250	-0.22638822
251	0xbcfa150f	-0.03052762
252	0xbec9c5b8	-0.3940866
253	0x3e66b3ca	0.22529522
254	0x3e5079f4	0.20359021
255	0xbe26fd00	-0.1630745

net.2.weight f4 [256, 512]
0	0xbddddfac	-0.10833678
1	0xbe0a3a63	-0.13498835
2	0xbd085831	-0.03328723
3	0x3b8c70fb	0.0042859293
4	0xbd5f307e	-0.054489605
5	0x3c3e8515	0.011628409
6	0x3c71dcc4	0.014762107
7	0xbd5bf95f	-0.053704616
8	0x3d2f9139	0.042863104
9	0xbd3456d1	-0.044028107
10	0x3d9bb3d2	0.076026574
11	0xbd87761f	-0.06614327
12	0x3bcc6563	0.006237672
13	0x3d796782	0.06088973
14	0x3d96cd3a	0.073633626
15	0x3ddcb3ff	0.10776519
16	0x3e28b993	0.16477041
17	0x3c11b83b	0.008894022
18	0x3c827b78	0.015928015
19	0x3d8a07f0	0.06739795
20	0xbdd72636	-0.10505335
21	0x3d8ccefc	0.06875417
22	0xbd709c3d	-0.05874275
23	0xbd24a07b	-0.04019211
24	0xbe52251e	-0.20521972
25	0xbe46fb01	-0.19431688
26	0xbdd86de7	-0.10567837
27	0xbd9e5bda	-0.07732363
28	0xbc133895	-0.008985658
29	0xbd7f39d7	-0.06231102
30	0xbe525b22	-0.20542577
31	0x3d336114	0.043793753
32	0x3d0e5735	0.034751136
33	0xbbecb050	-0.0072231665
34	0x3d5e90d5	0.05433734
35	0xbd74a9e5	-0.059732337
36	0x3d697ef9	0.057005856
37	0xbdf674bf	-0.12033986
38	0x3dfcf1a1	0.123507746
39	0x3ca4414d	0.02005067
40	0x3d5239b2	0.051324554
41	0x3d37c89e	0.044869058
42	0x3ce03473	0.02736876
43	0x3d8646fe	0.065565094
44	0x3ae2b8d4	0.0017297515
45	0xbde05d9a	-0.10955353
46	0xbdc20047	-0.09472709
47	0xbc1a9a7f	-0.009436249
48	0x3c0a1a7d	0.008429167
49	0x3cf61d27	0.030043198
50	0x3cad32d2	0.021142397
51	0xbe3433b5	-0.1759785
52	0xbd151c76	-0.036404096
53	0x3d1f7d8f	0.0389381
54	0x3d639284	0.05555965
55	0xbc466c5c	-0.012110796
56	0xbd866a77	-0.06563275
57	0x3ccf22be	0.025285121
58	0xbdaa10c5	-0.0830398
59	0xbe0deb1f	-0.13859223
60	0x3dea88bd	0.11451862
61	0xbd90e99d	-0.07075808
62	0x3dc9c765	0.098524846
63	0xbd39e8bd	-0.045387972
64	0x3dc6f3d0	0.09714472
65	0xbdb012cb	-0.085973345
66	0xbb3a7c92	-0.0028455597
67	0x3dbf4c9e	0.093407854
68	0xbadfa1bb	-0.0017061749
69	0x3cc2ebc7	0.023794068
70	0xbd72a5eb	-0.059240263
71	0xbdd0fc6b	-0.10204395
72	0x3d551ebc	0.052031264
73	0xbe473948	-0.19455445
74	0xbd368d99	-0.04456863
75	0x3a25ce84	0.0006325024
76	0x3da6d18a	0.08145435
77	0x3dc29c65	0.09502486
78	0x3dc1aac6	0.094564006
79	0xbdc50c65	-0.09621505
80	0x3d2dbcb0	0.042416275
81	0xbdd630df	-0.1045854
82	0xbddf997e	-0.10917948
83	0x3e09c2b8	0.13453186
84	0xbcb90878	-0.022587046
85	0xbcfdae7e	-0.030966993
86	0xbd98d4ac	-0.07462439
87	0x3decd74f	0.11564504
88	0x3d8f9956	0.070116684
89	0x3d4cd0d4	0.05000384
90	0x3e00e841	0.12588598
91	0x3bf24134	0.0073930267
92	0xbe4f1b1c	-0.20225185
93	0xbd7adaaa	-0.06124369
94	0x3d6cdd02	0.057827957
95	0x3d04eabe	0.03245043
96	0xbcbf829d	-0.023377711
97	0xbe0faf82	-0.14031795
98	0x3d201657	0.039083805
99	0xbe402e57	-0.18767677
100	0xbd3d2da4	-0.046186104
101	0xbd901abf	-0.070363514
102	0x3d538126	0.051636837
103	0xbd763f4c	-0.06011896
104	0xbe4d5f64	-0.2005592
105	0x3cc756f3	0.024333453
106	0xba802e3f	-0.0009779407
107	0x3dab0d6d	0.0835217
108	0x3dbaf6fb	0.09129139
109	0x3bbfb2fb	0.0058501936
110	0xbd90f170	-0.070773005
111	0x3cab96bc	0.0209459
112	0xbe100f1b	-0.14068262
113	0x3ce1ce43	0.027564174
114	0x3d865136	0.065584585
115	0xbc2af6e7	-0.010434843
116	0xbd75ed44	-0.060040727
117	0x3da2ad2d	0.07943187
118	0xbe282415	-0.16420014
119	0x3d661bf8	0.056179017
120	0x3da4bef3	0.08044233
121	0x3b900da5	0.004396158
122	0xbd66503e	-0.05622887
123	0xbe06a675	-0.13149436
124	0x3da023b1	0.078193076
125	0x3d2ab4c4	0.041676298
126	0x3e90bc70	0.28268766
127	0xbccdee33	-0.025137996
128	0x3d7814a3	0.060566556
129	0x3d50af67	0.050948527
130	0x3df34cdd	0.11879895
131	0x3b0a65e0	0.002111785
132	0x3d1da60b	0.03848843
133	0x3e16a89c	0.14712757
134	0x3ccfc68c	0.02536323
135	0x3e56afa7	0.20965444
136	0x3d803467	0.06259995
137	0xbe27fc28	-0.16404784
138	0xbc2bf30a	-0.010494957
139	0xbb2b773e	-0.0026163603
140	0xbafb461e	-0.0019170677
141	0xbda97af2	-0.08275403
142	0xbc310217	-0.010803721
143	0x3c5e51c6	0.013569301
144	0x3dada209	0.084781714
145	0xbe20a5af	-0.15688203
146	0xbd8b4dee	-0.06801973
147	0xbdcc6e7c	-0.09982011
148	0x3daa1bf6	0.083061144
149	0xbdba1e20	-0.09087777
150	0xbd280b86	-0.041026615
151	0xbd6f6a05	-0.058450717
152	0xbcd0a0bd	-0.025467271
153	0x3d534fcb	0.05158977
154	0x3cf098f2	0.029369805
155	0x3c43015b	0.011902179
156	0xbd1015ca	-0.03517703
157	0x3e1d763a	0.15377131
158	0x3dad02ae	0.08447777
159	0xbe7e89ee	-0.24857304
160	0x3c793b1e	0.015211849
161	0xbd7d246d	-0.061802316
162	0x3d8e7958	0.06956738
163	0xbe259fe6	-0.16174278
164	0x3d8664b8	0.06562179
165	0xbd8416df	-0.06449675
166	0x3d4e192c	0.050316975
167	0xbcfd7ccb	-0.030943295
168	0x3cc4bbe4	0.024015374
169	0x3de9bbdf	0.11412787
170	0xbd91f81e	-0.07127403
171	0xbc21cbb0	-0.009875223
172	0x3d3c6491	0.045994345
173	0xbe379b1b	-0.17930262
174	0x3d9971dd	0.07492421
175	0x3d912bd4	0.07088438
176	0x3d194366	0.03741779
177	0xbd005f22	-0.031340726
178	0xbd23bdd5	-0.03997596
179	0xbca6e48e	-0.020372655
180	0x3d2e4acc	0.0425518
181	0xbdbbe6e3	-0.091748975
182	0x3b9bdc97	0.004756521
183	0x3da4083f	0.08009385
184	0x3d5c6035	0.053802688
185	0x3c7ea44e	0.015542103
186	0xbd31bcc2	-0.043392904
187	0xbd82eaea	-0.063924626
188	0xbcd4d2a3	-0.025979346
189	0xbbbdf985	-0.0057975673
190	0xbd391eb3	-0.045195293
191	0xbe03f083	-0.12884717
192	0x3cb1be60	0.021697223
193	0x3d4c79aa	0.049920715
194	0x3c6e1b39	0.014532858
195	0x3d00a701	0.031409267
196	0x3d651a7a	0.055933453
197	0x3d39904d	0.04530363
198	0x3cdc36a7	0.026881529
199	0xbaa4311f	-0.0012526846
200	0xbce37dba	-0.027769912
201	0xbc56eb73	-0.013117659
202	0x3dd1e136	0.10248034
203	0x3e0d90c2	0.13824752
204	0xbe1d236b	-0.15345542
205	0xbdae2fdb	-0.085052215
206	0xbd1a7a03	-0.037714016
207	0xbdabc39e	-0.083869204
208	0xbc3becde	-0.011470048
209	0xbd174009	-0.036926303
210	0xbd12aebf	-0.035811182
211	0x3cb53109	0.022118108
212	0xbd8c72bb	-0.068578206
213	0x3dd4923c	0.103794545
214	0xbd95533b	-0.072912656
215	0x3ddaf7dc	0.10691807
216	0x3d6ce433	0.057834815
217	0xbde4c622	-0.11170603
218	0x3cb0f251	0.02159992
219	0xbd7c1a94	-0.061548784
220	0x3e32ebee	0.17472813
221	0x3c2c3fc4	0.01051325
222	0x3d4ecd6a	0.050488867
223	0x3d32709f	0.043564435
224	0xbd955563	-0.07291677
225	0xbd908871	-0.07057274
226	0xbc9ceb1a	-0.019155074
227	0x3d378d86	0.0448127
228	0xbad9a835	-0.0016605916
229	0x3cbf9b99	0.023389624
230	0xbe06c070	-0.13159347
231	0x3d86742c	0.06565127
232	0xbcdd55d3	-0.027018463
233	0xbd50c602	-0.050970085
234	0xbd911187	-0.07083421
235	0x3d5f01f6	0.05444523
236	0x3d15a535	0.036534507
237	0x3d374784	0.044745937
238	0xbb73797f	-0.0037151275
239	0x3d4bf738	0.049796313
240	0xbd0a5c29	-0.033779297
241	0xbd8734c5	-0.06601862
242	0x3cd666ed	0.026172126
243	0x3e18449c	0.14869922
244	0x3cb8cd20	0.022558749
245	0xbd2e15a8	-0.04250112
246	0xbca3ed55	-0.02001063
247	0x3d649983	0.055810463
248	0xbca32444	-0.019914754
249	0xbce219b7	-0.027600152
250	0x39b1c630	0.00033907732
251	0xbe23322c	-0.15937108
252	0x3d943643	0.07236912
253	0xbdf986bf	-0.12183904
254	0xbd903d93	-0.07042994
255	0x3cd6fb37	0.026242835

net.2.bias f4 [256]
0	0xbd2d836d	-0.042361666
1	0xb87df664	-6.054937e-05
2	0x3c2ac6df	0.010423391
3	0x3e07188b	0.13192956
4	0xba22957e	-0.00062020856
5	0xbd093087	-0.033493545
6	0x3e06c26c	0.13160104
7	0xbbee7eb8	-0.0072782896
8	0x3bb12b51	0.005406775
9	0x3cb46d79	0.022024857
10	0x3df4c3aa	0.119513825
11	0x3e0412a6	0.12897739
12	0xbcf8fb45	-0.030393252
13	0x3ce46476	0.027879935
14	0xbb3195af	-0.0027097275
15	0x3e1df743	0.15426354
16	0x3b781397	0.0037853473
17	0x3c0be75c	0.008539047
18	0x3d855e5a	0.06512137
19	0x3d0811ee	0.033220224
20	0x3da7d0e4	0.081941396
21	0x3dabe720	0.08393693
22	0xbc7bfc05	-0.01537991
23	0x3dcacb35	0.0990204
24	0x3c678fae	0.014133377
25	0x3c2779cb	0.010221909
26	0xbcc41b6a	-0.023938853
27	0xbd9e0a87	-0.07716852
28	0xbc1977e6	-0.009366965
29	0x3d99d8fa	0.07512088
30	0xbd888e02	-0.06667711
31	0xbc47a3ba	-0.012185032
32	0xbd19d150	-0.03755313
33	0xba33d263	-0.0006859658
34	0xbc95bdc2	-0.01827896
35	0x3c0d0e82	0.008609416
36	0xb9417975	-0.0001845116
37	0xbdc3b236	-0.095554754
38	0xbd2d4d71	-0.042310182
39	0x3b68021d	0.003540165
40	0xbc1c6fa2	-0.0095481
41	0xbbf61b04	-0.0075105447
42	0x3c1d2aed	0.009592754
43	0xbba1a977	-0.004933532
44	0x3bee0d90	0.0072648004
45	0x3c58f7bc	0.013242658
46	0xb552d0fd	-7.8535214e-07
47	0xbb4947a3	-0.0030712865
48	0xbbc273f7	-0.0059342342
49	0xbd5fc538	-0.05463144
50	0x3da830a2	0.08212401
51	0x3ba80559	0.0051275906
52	0xbdaab5d4	-0.08335462
53	0x3d637e92	0.05554063
54	0x3d3bae5a	0.04582057
55	0xb9a824fd	-0.00032071015
56	0xb8e968df	-0.000111298395
57	0xbd16d838	-0.036827296
58	0x3dc362c1	0.0954032
59	0x3d8f864f	0.07008039
60	0xbd8f4fec	-0.06997666
61	0x3d7c6d42	0.061627634
62	0xbc763733	-0.015027809
63	0x3c19a2e4	0.009377215
64	0xbc5a9a7a	-0.013342494
65	0x3dc95975	0.09831516
66	0x3dbe8f3b	0.09304663
67	0x3c3da675	0.011575331
68	0x3c8b7178	0.01702188
69	0x3d8a1ecf	0.067441575
70	0xbd043b2b	-0.03228299
71	0xbbba5061	-0.0056858514
72	0x3c34a7bc	0.011026319
73	0x3c039f92	0.00803365
74	0x3dad99d7	0.08476608
75	0xbba684a1	-0.0050817286
76	0xbd681a9f	-0.056666013
77	0xbc8e05e9	-0.017336803
78	0x3b6db654	0.0036272006
79	0xbcb898c9	-0.022533791
80	0x3d5fb525	0.054616112
81	0x3ce0e981	0.027455093
82	0xbc6bbd81	-0.014388443
83	0xbc8eb6e9	-0.017421203
84	0xbc19223c	-0.009346541
85	0xbb4eaded	-0.0031536773
86	0x3d80e707	0.06294065
87	0xbc8ade11	-0.016951593
88	0x3c6c1baf	0.014410897
89	0x3cb24c49	0.021764891
90	0xbb0345b7	-0.0020030567
91	0x39a59315	0.00031580837
92	0xbcec264a	-0.028826851
93	0xbdcb4245	-0.09924749
94	0xbd58852f	-0.05286139
95	0xbce24a18	-0.027623221
96	0x3d778477	0.060429063
97	0xbcb87833	-0.022518253
98	0x3dbe63ff	0.092964165
99	0xbd5575b5	-0.052114207
100	0xb8088c78	-3.255575e-05
101	0x3d26df6f	0.040740427
102	0xbc961107	-0.018318666
103	0xbc177ad9	-0.009245598
104	0xba713a94	-0.0009202149
105	0x3ca8209a	0.020523358
106	0x3da9c2cf	0.0828911
107	0xbc3d17f2	-0.011541354
108	0x3d230dab	0.039807957
109	0x3d7217f2	0.059104867
110	0xbca78d2c	-0.020453058
111	0xbb5f6c51	-0.0034091661
112	0xbd937c97	-0.07201498
113	0xbbf0aa2c	-0.007344505
114	0x3d67e5a3	0.056615483
115	0xb8b6cae3	-8.716227e-05
116	0xbcb313e7	-0.021860076
117	0x3cfd9c90	0.030958444
118	0x3c4ce5ee	0.012505991
119	0x3c50ce43	0.012744489
120	0x3c15c3ee	0.009140952
121	0xbdbd7081	-0.09249974
122	0x3cbb34ff	0.022852419
123	0xbcf7adb0	-0.030234188
124	0x3c3f9b57	0.011694751
125	0xbc2bd323	-0.010487351
126	0x3d3966b4	0.04526396
127	0xb7988eb9	-1.8186272e-05
128	0xbc730511	-0.014832751
129	0xbbe0db07	-0.0068620476
130	0xbbe26116	-0.006908546
131	0xbb538923	-0.0032277785
132	0xbb08e27c	-0.0020886948
133	0xbcbf75ab	-0.023371538
134	0x3b0a482a	0.0021100142
135	0x3c27468e	0.010209693
136	0x3d60751e	0.05479919
137	0x3c192b06	0.0093486365
138	0x3bdbe7e5	0.0067109936
139	0xbd2b1009	-0.04176334
140	0xbc58ada6	-0.013224995
141	0xba46e6fc	-0.000758752
142	0x3d888d2e	0.06667553
143	0x3a5e5593	0.00084813795
144	0xbda98be2	-0.08278634
145	0xbd973e4b	-0.07384928
146	0x3c2fd677	0.010732285
147	0xb912e9c0	-0.00014010724
148	0xbcb172e6	-0.021661233
149	0xbd299e4c	-0.04141073
150	0x3d872c22	0.066002145
151	0xbc2acea5	-0.010425244
152	0xbd87fbff	-0.06639861
153	0x3e15561d	0.14583631
154	0xbd439e90	-0.04775864
155	0x383cf71a	4.5052824e-05
156	0x3b8242f6	0.0039752675
157	0x3d05cd13	0.032666277
158	0xbd1acfcf	-0.037795838
159	0x3d0e7273	0.034777116
160	0x3c41cf4d	0.0118292095
161	0xbb11f77e	-0.002227276
162	0xb5f5c2bb	-1.8310596e-06
163	0xbcbf4892	-0.023350034
164	0xbc883629	-0.016627388
165	0xbb4eca08	-0.0031553525
166	0x3bbb4f60	0.0057162493
167	0x3c40f82e	0.011777921
168	0xbda478c9	-0.080308504
169	0x3b3d8991	0.0028921107
170	0x3d31ac67	0.043377306
171	0x3c3d2ee4	0.011546824
172	0x3d4fbace	0.05071526
173	0x3c585f5e	0.013206331
174	0xbd893224	-0.06699017
175	0xbcf01bc6	-0.029310118
176	0x3d5e7c6c	0.054317877
177	0x3b803740	0.0039128363
178	0xbd229050	-0.03968841
179	0xbbe09141	-0.006853253
180	0xbc64221d	-0.013924149
181	0xbd92e1e8	-0.071719944
182	0x3bc8b7d7	0.006125431
183	0xbb508d65	-0.003182256
184	0x3dada352	0.084784165
185	0x3d53ff2d	0.051757026
186	0xbb436ad1	-0.0029818306
187	0xbd1a17c8	-0.037620336
188	0x3c91f882	0.017818693
189	0x3d4ad04d	0.049515057
190	0xbd2f8005	-0.0428467
191	0x3bd7ae60	0.0065820664
192	0x3c6b55f5	0.0143637555
193	0x3dd1ca05	0.1024361
194	0x3d8b3868	0.06797868
195	0x3a924211	0.0011158605
196	0x3d8ec2d2	0.06970753
197	0xbd6317ff	-0.055442806
198	0x3d74e7b6	0.05979129
199	0xb8a4a475	-7.850762e-05
200	0xbc328b10	-0.010897413
201	0xbcb29332	-0.021798704
202	0xbcba3f55	-0.022735277
203	0x3d92f32a	0.07175286
204	0xbc9a4f95	-0.018836776
205	0x3d3f7fb9	0.046752665
206	0x3cb83a15	0.022488633
207	0xbb95e611	-0.004574545
208	0x3d6872cc	0.056750104
209	0x3d743847	0.059623983
210	0xbccd63da	-0.025072027
211	0xba1b94a4	-0.000593493
212	0xbce6ba65	-0.028165052
213	0xbcedc94a	-0.029026646
214	0x3c881025	0.01660926
215	0xbccf76b6	-0.02532516
216	0x3dcb5991	0.09929193
217	0xbd39dc2c	-0.045375988
218	0xb8efa43a	-0.00011426998
219	0xb203991f	-7.660019e-09
220	0xbce97a8c	-0.028500818
221	0x3b361ad0	0.0027786978
222	0x3dbd9c59	0.092583366
223	0xbcbb7ca0	-0.022886574
224	0xbcfe3812	-0.031032596
225	0x3dbc05ca	0.09180792
226	0x3de94afd	0.11391256
227	0x3b82b31a	0.0039886357
228	0x3d1d3e81	0.038389686
229	0xbd4eec29	-0.05051819
230	0x3c62fe0b	0.013854514
231	0x3d2ea5a9	0.042638455
232	0x3d756620	0.059911847
233	0x3c86215c	0.016373329
234	0xbd0e6de8	-0.034772784
235	0xbc9aea12	-0.018910442
236	0x3d381e7e	0.044950955
237	0xbbb8b0e3	-0.005636321
238	0xb93acb67	-0.00017814116
239	0x3ab547d1	0.0013830607
240	0xbd94d588	-0.0726729
241	0xb9563c81	-0.0002043117
242	0x3c6d4fc8	0.014484353
243	0xbce0c737	-0.027438743
244	0x3712a391	8.740361e-06
245	0xbc9e27d5	-0.019306103
246	0xbcb2361f	-0.021754323
247	0xbc806887	-0.015674843
248	0x3d3a8928	0.04554096
249	0x3db205cb	0.08692511
250	0xbbbbb6d7	-0.0057285833
251	0xbd949e9b	-0.07256814
252	0xbc0e56d6	-0.0086876955
253	0x3ce97c5d	0.028501684
254	0xbce0bf9f	-0.027435122
255	0xbd40f035	-0.04710408

net.4.weight f4 [128, 256]
0	0xba98d4f3	-0.0011660144
1	0x9615e385	-1.2107917e-25
2	0x39adb43d	0.0003313142
3	0x3c14b422	0.00907615
4	0xbc5b7a75	-0.013395895
5	0xbbcef74a	-0.0063161002
6	0xbc999a96	-0.01875047
7	0xb72e8951	-1.040318e-05
8	0xb49a1fc8	-2.870786e-07
9	0xbae2a69e	-0.0017292087
10	0xbbd1aacc	-0.0063985344
11	0xbaa8833d	-0.0012856495
12	0x1383e688	3.329637e-27
13	0x3b724c66	0.0036971807
14	0x01a8bdc8	6.1985776e-38
15	0xbb91dec6	-0.0044516055
16	0x3a3a79ce	0.0007113487
17	0x354f1fa1	7.7159535e-07
18	0xbc816e27	-0.015799595
19	0xb98f2f0b	-0.00027310135
20	0x36551f68	3.1757754e-06
21	0xb8aa5ddb	-8.1237136e-05
22	0x3b3e258f	0.0029014086
23	0xbc63a97b	-0.013895388
24	0x3b0134e3	0.001971536
25	0x34d31611	3.9317868e-07
26	0xa394512e	-1.6080573e-17
27	0xb7d5ced6	-2.5487894e-05
28	0xb8c3b3e7	-9.331834e-05
29	0xbae62548	-0.0017558718
30	0x3a169817	0.0005744709
31	0x81bd0e5f	-6.9448257e-38
32	0x3c59968e	0.013280524
33	0x3c01338a	0.007885823
34	0x38357c9f	4.3269825e-05
35	0x3ad1aeeb	0.0015997564
36	0xbc43b87f	-0.011945843
37	0xbb45e672	-0.003019717
38	0x33c114c9	8.9910436e-08
39	0xbc0b4cec	-0.008502226
40	0xbc3426c8	-0.010995574
41	0x01d0fd2b	7.677041e-38
42	0x37e2e18a	2.7046324e-05
43	0xbc3c1f47	-0.0114820665
44	0xbcc6ae26	-0.024252962
45	0x3c5ad0fc	0.01335549
46	0x0174c6f5	4.4958467e-38
47	0xb9b7993f	-0.00035018657
48	0x399ebdb3	0.00030277445
49	0xb429a701	-1.5800107e-07
50	0xba523bd2	-0.0008019778
51	0xbc16bce1	-0.009200306
52	0xb995ffcf	-0.00028610087
53	0x08acbdb2	1.0396471e-33
54	0x29308dd3	3.9202863e-14
55	0xbbfc7ada	-0.0077050747
56	0x288cfaf5	1.5651958e-14
57	0x3ba8cb7f	0.0051512117
58	0xbc5fca53	-0.013659078
59	0xbc989338	-0.018624887
60	0x81ef9a54	-8.8016184e-38
61	0x38eb41de	0.00011217942
62	0x31345bf7	2.6245723e-09
63	0x3c61ebfc	0.013789173
64	0x82043df6	-9.71561e-38
65	0xbc722890	-0.014780179
66	0x34f3c18d	4.5403104e-07
67	0x3ca092e3	0.019601291
68	0xb5c339b9	-1.4545432e-06
69	0x80ef1468	-2.1956004e-38
70	0x01e79a5d	8.50775e-38
71	0x3a17e248	0.00057939114
72	0xba8b4e19	-0.0010628133
73	0x3a160083	0.0005722122
74	0x3c02b7be	0.007978378
75	0xb8e5bf9b	-0.0001095526
76	0x3b774d07	0.003773512
77	0xbca0df29	-0.019637661
78	0xbc51f693	-0.0128151355
79	0x394820af	0.00019085662
80	0xbb6fe2fb	-0.0036603797
81	0x96659c17	-1.8547726e-25
82	0x9c9a1627	-1.0196591e-21
83	0x3ab82add	0.001405086
84	0xbadcbaac	-0.00168403
85	0x3b3f1b6a	0.0029160627
86	0x01405700	3.532725e-38
87	0x3ab7b040	0.0014014319
88	0xba4251f6	-0.0007412726
89	0x3b4d506c	0.0031328453
90	0x01bff5b1	7.051487e-38
91	0x34961f93	2.796265e-07
92	0xbcd9994b	-0.026562354
93	0xbb23a651	-0.0024970958
94	0xb845e170	-4.7178415e-05
95	0xbca71b82	-0.020398859
96	0xbabd9ac4	-0.0014465679
97	0x00f8fcbf	2.2865871e-38
98	0x3c2e31af	0.010631963
99	0x3bbe6f30	0.0058115944
100	0x012b5e28	3.1475293e-38
101	0x388a0c44	6.5826374e-05
102	0x37d67501	2.5565272e-05
103	0xad16c2b7	-8.569748e-12
104	0xbc56fbee	-0.013121588
105	0x3994c140	0.00028372742
106	0xbc9d04ca	-0.019167323
107	0x3953cdc8	0.00020199188
108	0x3bb90d43	0.005647333
109	0xba238351	-0.0006237524
110	0x3c5127b6	0.0127658155
111	0x3ad336c1	0.001611434
112	0x372e2f20	1.038218e-05
113	0x39fdc860	0.0004840521
114	0xbd42cc41	-0.047558073
115	0x22352144	2.4547685e-18
116	0xba99f4a7	-0.0011745886
117	0x3a891a59	0.0010460123
118	0xb6980744	-4.530799e-06
119	0xbb2fcf4f	-0.0026826446
120	0x3b4ae149	0.0030957034
121	0x3512142f	5.441861e-07
122	0xb89bf5f2	-7.436787e-05
123	0x3a46f7bc	0.0007590016
124	0xb705e469	-7.980599e-06
125	0x3b1cbfa6	0.0023917942
126	0xbb8dd3f5	-0.0043282458
127	0x398d9b28	0.00027009216
128	0xbc67d9a1	-0.014151008
129	0x39e928c4	0.00044471596
130	0x38ed5366	0.00011316575
131	0x3a09d9ee	0.00052586093
132	0xbcbda868	-0.023151591
133	0xbb939164	-0.004503416
134	0xbc670ccb	-0.014102171
135	0x390b9ab2	0.00013313701
136	0xb942ff7a	-0.00018596454
137	0x3bbed6e6	0.0058239577
138	0xbae2dc4f	-0.0017308089
139	0xb9de075f	-0.00042348632
140	0x3b9fb8fd	0.0048743472
141	0xabd429b7	-1.5075084e-12
142	0xbb6e84e8	-0.0036395136
143	0x3a837f66	0.0010032475
144	0x3c0c8f89	0.008579143
145	0xbca5b2f1	-0.020226927
146	0x399a7c16	0.0002946562
147	0xbbe64b63	-0.0070280298
148	0xbb886155	-0.0041619935
149	0xbaec5502	-0.0018030705
150	0xbc1464d8	-0.009057246
151	0xbc846483	-0.016161209
152	0xba7f094d	-0.0009728864
153	0xbc5c91b7	-0.0134624755
154	0x37fb6160	2.9966875e-05
155	0x819d645c	-5.78167e-38
156	0x3c4d56a6	0.012532866
157	0x3ba1bce8	0.0049358495
158	0x3c7bcbf7	0.015368453
159	0xbbb50db6	-0.005525316
160	0xb905f1ed	-0.00012773993
161	0xbc352d7b	-0.011058207
162	0x00b02a80	1.6178293e-38
163	0x3bb374fe	0.005476593
164	0x1e3a2ff3	9.856674e-21
165	0xb3e2bdd9	-1.0558478e-07
166	0x34362743	1.6964354e-07
167	0x3b226c50	0.0024783798
168	0x3ad47f66	0.0016212284
169	0xba44de4c	-0.00075099315
170	0x39817745	0.0002469366
171	0x3c0a013c	0.008423146
172	0xb71f689b	-9.501494e-06
173	0xbc6f3a2e	-0.014601273
174	0x3b5f8442	0.0034105931
175	0x3c9b9e21	0.0189963
176	0x3a99d0d9	0.0011735215
177	0xab1c4198	-5.5513363e-13
178	0x01a37ac1	6.0052887e-38
179	0x2a8c03be	2.4871592e-13
180	0x3af094fc	0.0018354948
181	0x37f90f3b	2.9690205e-05
182	0x3bc6f8f2	0.006072157
183	0xbc05e7dd	-0.008172956
184	0xbb87e055	-0.0041466155
185	0x3bd09fa3	0.0063666864
186	0x01b34335	6.585065e-38
187	0xb87f732a	-6.0903993e-05
188	0x3b243c0d	0.0025060207
189	0xbade798b	-0.0016973478
190	0x3ba52206	0.0050394563
191	0x3c8a6903	0.016895777
192	0x3ba87068	0.005140353
193	0xba24a7b4	-0.0006281093
194	0xbc165b08	-0.009176977
195	0xb919bac3	-0.00014660791
196	0x3bbb9fc2	0.0057258317
197	0xbc39331c	-0.011303689
198	0x3c39a984	0.01133192
199	0x01cd11fa	7.53309e-38
200	0x3a1854d6	0.00058109814
201	0xa430e214	-3.8355412e-17
202	0x8215c0ae	-1.1002088e-37
203	0xbc07ad06	-0.008280998
204	0x802fdb90	-4.395033e-39
205	0x3c538639	0.012910419
206	0x38c8a7c0	9.567989e-05
207	0xb1c82d46	-5.825913e-09
208	0xbbfefb0e	-0.007781393
209	0x3bb8ee26	0.005643624
210	0x81e46d3c	-8.3910716e-38
211	0x01be1837	6.9829724e-38
212	0x3bf961e2	0.0076105455
213	0xbaad16e0	-0.001320567
214	0x3b9b722e	0.004743836
215	0x37b41e46	2.147177e-05
216	0xbb4664e3	-0.0030272536
217	0x3bb0f683	0.0054004802
218	0x34cd3438	3.822222e-07
219	0x00c662a8	1.821882e-38
220	0x35e4a944	1.7036587e-06
221	0xba2cb03d	-0.0006587541
222	0xbd3e5086	-0.046463512
223	0x36d52c4d	6.353052e-06
224	0x87605c56	-1.6879022e-34
225	0x3c0b5d54	0.008506138
226	0xbc5ba35d	-0.013405648
227	0x3b4ba932	0.003107619
228	0x3cd20ce8	0.02564092
229	0xbcfb6614	-0.030688323
230	0xba630eaa	-0.0008661548
231	0xbbba1a25	-0.005679386
232	0x3b995ad6	0.004680018
233	0xbb8a1f15	-0.004215131
234	0xbc3ba137	-0.011452011
235	0xbaa3e718	-0.0012504784
236	0xbb44342d	-0.0029938326
237	0xb98e7ef8	-0.0002717895
238	0x3aee9b92	0.0018204323
239	0xbb74ea6a	-0.0037371167
240	0x1c799655	8.258149e-22
241	0x39766392	0.00023497481
242	0x3c9816ec	0.018565618
243	0xbc78eebe	-0.015193639
244	0x3c53844c	0.01290996
245	0xb99a6725	-0.00029450018
246	0xbccdd5df	-0.025126396
247	0x0165a862	4.2181466e-38
248	0x3ab7559a	0.0013987303
249	0xb6cdc937	-6.1329006e-06
250	0x3089634a	9.996282e-10
251	0x39dee6f9	0.00042515228
252	0x3c006525	0.007836615
253	0xbc8f4fc8	-0.017494097
254	0x38439275	4.662802e-05
255	0x3b5b4d26	0.0033462732

net.4.bias f4 [128]
0	0x3b691aa0	0.0035568848
1	0xbca4fba5	-0.020139525
2	0x3d2b16d6	0.041769825
3	0xbc1d876e	-0.0096148085
4	0x3e0dc2d1	0.13843848
5	0x3d157c50	0.036495507
6	0x3e0cc1ea	0.13745847
7	0x3d78cfc5	0.06074502
8	0xbdbd152e	-0.09232555
9	0x3d1fb51e	0.038991086
10	0x3b3e68ea	0.0029054233
11	0xbd8b711c	-0.06808683
12	0xbc89c200	-0.01681614
13	0xbd1661f0	-0.036714494
14	0xbcff19b2	-0.031140182
15	0xbc4b2c48	-0.012400694
16	0x3dbbf91d	0.09178374
17	0x3c22b816	0.009931585
18	0xbd1c587a	-0.038170315
19	0xbce4d7dd	-0.027934963
20	0xbda073cd	-0.07834587
21	0xbb854ba0	-0.004067853
22	0xbcafd999	-0.021466063
23	0x3d574389	0.05255464
24	0xbd6fb05b	-0.058517795
25	0xbc63728f	-0.013882293
26	0x3dd19320	0.1023314
27	0x3ca330d9	0.019920753
28	0xba154f7d	-0.00056957436
29	0x3c39725c	0.011318769
30	0xbcd91039	-0.026496993
31	0xbd107cf0	-0.0352754
32	0xbdf26bcc	-0.11836967
33	0x3b79052c	0.0037997467
34	0xbdb16095	-0.08661
35	0xbc6e6382	-0.014550092
36	0x3b8e4562	0.004341767
37	0x3df16d8e	0.11788474
38	0x3d42669b	0.047461133
39	0xbdbd57a1	-0.092452295
40	0x3d322c8d	0.04349952
41	0xbd639661	-0.055563334
42	0x3ddc70c0	0.10763693
43	0xbc50f3ed	-0.012753469
44	0xbd736a51	-0.059427563
45	0x3c045daa	0.008078972
46	0xbd92f1fc	-0.07175061
47	0xbdf473b1	-0.11936129
48	0x3cf1443e	0.029451486
49	0x3bc76fe6	0.0060863374
50	0x3d57e152	0.052705117
51	0x3d95bbc3	0.07311203
52	0xbd4cb5c6	-0.04997804
53	0x3d7815eb	0.060567778
54	0x3d117f80	0.035521984
55	0xbc4ad888	-0.012380727
56	0x3dcc4395	0.09973828
57	0xb9aa1764	-0.00032442354
58	0x3dda463e	0.10657929
59	0xbc90602a	-0.01762398
60	0x3bda3d8d	0.0066601695
61	0x3d8c552e	0.06852184
62	0x3ce57de2	0.028014127
63	0xbd08292d	-0.033242393
64	0x3b9f747b	0.0048661805
65	0x3b1c3c28	0.0023839567
66	0x3bdf1b81	0.0068086986
67	0xbd7c20b7	-0.061554637
68	0x3c5878c0	0.013212383
69	0x3d83b080	0.06430149
70	0x3dc700c7	0.09716945
71	0xbd16e060	-0.036835074
72	0x3da8f447	0.08249717
73	0xbc90a64f	-0.017657427
74	0xbd4ac50b	-0.04950432
75	0x3d0a9ada	0.033839084
76	0x3d095fa6	0.033538483
77	0xbd4bee89	-0.04978803
78	0xbd9a0d47	-0.07522064
79	0x3dd6eb49	0.10494096
80	0x3c401177	0.011722914
81	0xbd969fe7	-0.07354718
82	0xbd9f8ddb	-0.07790729
83	0x3c006e2e	0.007838769
84	0xbd4b07e3	-0.04956807
85	0xbc1fdfc7	-0.0097579425
86	0xbd869a23	-0.06572368
87	0x3d93b661	0.072125204
88	0xbd98cd04	-0.074609786
89	0x3dcdeac3	0.10054543
90	0xb9afadd9	-0.00033508128
91	0xbcef14e9	-0.029184775
92	0x3cbeab30	0.023274988
93	0x3d4af1dc	0.04954706
94	0x3d7368c9	0.059426103
95	0x3d0fb4cd	0.035084534
96	0xbcb3070f	-0.021853952
97	0x3dcfaa80	0.10139942
98	0xbd271def	-0.04080003
99	0x3d915071	0.07095421
100	0x3c9e1f91	0.019302161
101	0xbd2aed16	-0.04173001
102	0x3c3590bf	0.011081873
103	0xbcc948df	-0.02457088
104	0x3d99d0be	0.075105175
105	0x3cb2e7f5	0.021839121
106	0x3db4f4c6	0.08835749
107	0x3da1bb8f	0.07897102
108	0xbd3977da	-0.045280315
109	0x3a2b47a9	0.00065338105
110	0xbd4c24a0	-0.049839616
111	0x3d558a5c	0.052133903
112	0xbd7f838c	-0.062381312
113	0x3bbb014a	0.005706941
114	0x3d52e5db	0.05148874
115	0xbd52d00b	-0.051467936
116	0xbd5994d9	-0.053120468
117	0xbd5aa05f	-0.053375598
118	0x3b07f13a	0.0020743147
119	0x3cdb2927	0.026753021
120	0xbc8af980	-0.016964674
121	0xbc82ff86	-0.015990984
122	0x3d4f82c7	0.05066183
123	0xbd5fa4de	-0.05460059
124	0x3d9ae761	0.07563663
125	0x3d3741aa	0.044740357
126	0xbbb2c5e2	-0.0054557184
127	0xbcca9250	-0.02472797

net.6.weight f4 [64, 128]
0	0xb905c19b	-0.00012755992
1	0xba0f10fc	-0.0005457548
2	0xba0bcd5b	-0.00053330295
3	0x01be9180	7.000376e-38
4	0xbd19ea45	-0.037576932
5	0x80145a5e	-1.869128e-39
6	0xbcc8b405	-0.024499903
7	0x80c22bd4	-1.7831809e-38
8	0x81685da4	-4.2678854e-38
9	0x81a43aee	-6.0328645e-38
10	0x0140cea8	3.54131e-38
11	0xbd4c7a71	-0.049921457
12	0x3c1a2f60	0.009410709
13	0x01a4fac4	6.0603917e-38
14	0x80017a0a	-1.35615e-40
15	0x01994fd2	5.631786e-38
16	0xbcc52013	-0.024063146
17	0xb91b93a2	-0.0001483695
18	0xbd3e05b9	-0.046392176
19	0x8048dc3c	-6.691161e-39
20	0x81b6e241	-6.71809e-38
21	0x00b30748	1.6441166e-38
22	0xbd0d5cfe	-0.034512512
23	0xbd34393f	-0.043999907
24	0x3d2ad065	0.041702647
25	0x01e3479a	8.3489374e-38
26	0x3ca0287d	0.019550556
27	0xbdb195d0	-0.086711526
28	0x018fe816	5.286293e-38
29	0x81da7be5	-8.025833e-38
30	0x8181de80	-4.770639e-38
31	0x816c775f	-4.3432e-38
32	0x819b3fe3	-5.702968e-38
33	0x3d0951e0	0.033525348
34	0xb8d22bad	-0.000100217156
35	0xbd2f8e29	-0.042860184
36	0xbc3ffd3b	-0.01171809
37	0x3d29b391	0.041431013
38	0x819948c0	-5.6307715e-38
39	0x00998734	1.4099333e-38
40	0x3d4ec00f	0.05047613
41	0x01c2756c	7.1432837e-38
42	0xbc26b336	-0.010174563
43	0x0194e61d	5.469681e-38
44	0x01c89494	7.3681596e-38
45	0x3d241df3	0.040067624
46	0x81b7b050	-6.747658e-38
47	0x80bbab58	-1.7234704e-38
48	0x3c017218	0.007900737
49	0xbc52a8e3	-0.012857649
50	0xafbca91c	-3.431716e-10
51	0x3a821843	0.0009925443
52	0x3d0ba568	0.03409329
53	0xbce6476b	-0.028110227
54	0xbdb31b94	-0.087454945
55	0xbaf2cf37	-0.001852489
56	0x3cc49b27	0.023999764
57	0x0149af78	3.7043762e-38
58	0x3d10834d	0.03528147
59	0x01462f32	3.6400717e-38
60	0x37039c42	7.84459e-06
61	0xbd2a0d1c	-0.04151641
62	0xbd42e400	-0.04758072
63	0x019d326b	5.774504e-38
64	0x0152762c	3.8655693e-38
65	0x81927685	-5.3801997e-38
66	0x3ace12c6	0.0015722148
67	0xbc3ce402	-0.011528971
68	0x0195d388	5.503749e-38
69	0xbc8d71a8	-0.01726611
70	0x80e88980	-2.1355161e-38
71	0xb4681e97	-2.1617812e-07
72	0x3cd4d3c0	0.025979877
73	0x81b95644	-6.808205e-38
74	0xbcdd503d	-0.0270158
75	0x006e3f90	1.0124707e-38
76	0x3d0ddb9c	0.034633264
77	0x3cce72d3	0.025201237
78	0x01ca81e5	7.438947e-38
79	0x3d063807	0.032768276
80	0x80f21ae0	-2.2233831e-38
81	0x820cfe78	-1.0358605e-37
82	0x020bd9e7	1.0274642e-37
83	0x818524a9	-4.890909e-38
84	0x3b367316	0.0027839593
85	0x01af9eb8	6.45126e-38
86	0x3d347f12	0.044066496
87	0x3a850a5a	0.001015018
88	0x0133bb6c	3.3011576e-38
89	0xbda61364	-0.08109167
90	0x02187c68	1.1202899e-37
91	0x3d278d31	0.040906135
92	0xbad1b282	-0.0015998634
93	0x3d4aca1b	0.04950915
94	0xbc0f7565	-0.008756016
95	0xbd9a432f	-0.075323455
96	0x3aaf5b69	0.0013378683
97	0x3d2b4eaa	0.041823067
98	0x3a9a8156	0.0011787813
99	0x82072f33	-9.931779e-38
100	0x81627da8	-4.1599798e-38
101	0x8179da1c	-4.5890563e-38
102	0x01298620	3.1136628e-38
103	0x009ef24e	1.4596931e-38
104	0x3d23381c	0.039848432
105	0x01a679f2	6.115375e-38
106	0xbd85d5f7	-0.06534951
107	0x3d1411c6	0.036149763
108	0x01b45995	6.62501e-38
109	0x3c6cbd6b	0.014449458
110	0x81eeddab	-8.774547e-38
111	0x3c4b6978	0.012415282
112	0x807e3ca4	-1.1593026e-38
113	0xbd5ddc11	-0.05416495
114	0x3d2f443c	0.042789683
115	0x81b5462e	-6.65896e-38
116	0x81f77386	-9.089924e-38
117	0x017140b2	4.4311126e-38
118	0xbd56c0c2	-0.052429922
119	0x0168989e	4.2721168e-38
120	0x01cf39ef	7.612292e-38
121	0x80973468	-1.388596e-38
122	0xbd83581a	-0.064132884
123	0x01970847	5.5480517e-38
124	0xba1e70dd	-0.00060440396
125	0xbd40669f	-0.046972867
126	0x004673a0	6.469963e-39
127	0x01e8ed46	8.556381e-38
128	0xbb9b5288	-0.004740063
129	0x3d68a865	0.05680122
130	0x3dc40bf6	0.09572594
131	0xba96848c	-0.0011483594
132	0xbdc2cf18	-0.09512156
133	0xbd18134f	-0.03712779
134	0x3d95a925	0.073076524
135	0x3c890fd5	0.016731182
136	0xbe44b909	-0.1921121
137	0x3d384504	0.044987693
138	0x395eba69	0.00021241013
139	0x3cf370e3	0.029716915
140	0xba32216f	-0.0006795143
141	0x3c75ca14	0.015001792
142	0x39e2224d	0.00043131635
143	0xbc04faff	-0.008116483
144	0x3c1fa251	0.009743289
145	0x3b2d9769	0.0026487953
146	0x3daa3739	0.08311314
147	0x3d8be529	0.06830818
148	0xbd04c189	-0.032411132
149	0xbd43ed9c	-0.047834024
150	0x390ddbc1	0.00013528673
151	0xbcc855e5	-0.02445502
152	0xbbb585d1	-0.005539634
153	0xb46c1a49	-2.1988775e-07
154	0xbdb188c9	-0.08668668
155	0xbcc58bf2	-0.024114583
156	0x33689c4e	5.4158868e-08
157	0x3e1473ff	0.14497374
158	0x3a27c165	0.00063993625
159	0x2fe0ccc4	4.0890857e-10
160	0x3c49649c	0.012292054
161	0x3d830918	0.06398219
162	0xbd352726	-0.044226788
163	0xbc332939	-0.010935121
164	0xbceff561	-0.02929181
165	0x3db234f1	0.08701504
166	0xbbc3e1b5	-0.005977834
167	0xbd317d31	-0.043332282
168	0x3c8d1c38	0.01722537
169	0x3b60d17f	0.0034304557
170	0x3d6bee82	0.057600506
171	0xba81075c	-0.0009844112
172	0xbbce49f8	-0.006295439
173	0xbbcaa95f	-0.0061847414
174	0xbd471481	-0.04860354
175	0x3ca23f35	0.01980553
176	0x3c00215c	0.0078204535
177	0x3d87ccf7	0.06630891
178	0xbc2d850d	-0.010590804
179	0xbd2e3350	-0.042529404
180	0xbcb28f0b	-0.021796724
181	0x3db5ebfb	0.088829
182	0xbd2fba6f	-0.042902406
183	0xbd9833dd	-0.07431767
184	0xbc89caed	-0.016820395
185	0x0218a3a1	1.1214156e-37
186	0x3ca64812	0.020298038
187	0xbd27d6ca	-0.040976323
188	0x0b7c6124	4.8606515e-32
189	0x3cb39862	0.021923248
190	0xbe000024	-0.12500054
191	0xbb9e63d7	-0.004833679
192	0xbd858c77	-0.06520932
193	0x3c599a82	0.013281466
194	0xbdc8c5da	-0.09803362
195	0xbc8f7927	-0.017513825
196	0xbd831441	-0.064003475
197	0xbb681405	-0.0035412323
198	0xbcff009a	-0.031128217
199	0xbc91e1dc	-0.017807893
200	0xbdb1b811	-0.08677686
201	0x3d4721fd	0.048616398
202	0x3d827270	0.063694835
203	0xbb0850bc	-0.0020800075
204	0xbc73a2a6	-0.014870321
205	0xbca5e71a	-0.0202518
206	0x3db5b7d7	0.08872955
207	0x3d308f00	0.043105125
208	0xb6d201d2	-6.2586996e-06
209	0x3cfd5bd0	0.030927569
210	0x3cc12d1b	0.023581078
211	0x3c81ae0a	0.015830059
212	0x3d8a40b6	0.06750624
213	0x0c20f546	1.2399761e-31
214	0xbe3a5eda	-0.18200245
215	0xbd8f8ebe	-0.07009648
216	0x00558b64	7.856021e-39
217	0x3d6c4938	0.057687014
218	0x0173d974	4.4788066e-38
219	0xbd878868	-0.06617814
220	0x3d103ce0	0.035214305
221	0x3b87fd3c	0.004150061
222	0x3d26cc88	0.0407224
223	0xbbfc2b8c	-0.007695621
224	0xbc568200	-0.013092518
225	0xbd551143	-0.052018415
226	0xbbb0d3bf	-0.005396336
227	0x3da18766	0.07887153
228	0x3819f39a	3.6704914e-05
229	0x3c338a84	0.010958318
230	0xabf743c7	-1.7569218e-12
231	0x250f299e	1.2417373e-16
232	0xbd020069	-0.031738672
233	0x823da5a0	-1.3933059e-37
234	0x3d3228ee	0.043496065
235	0x3d50d415	0.050983507
236	0x3d5e8cca	0.054333486
237	0x3c2c9d67	0.0105355745
238	0x81e6f9f6	-8.4847333e-38
239	0xbd307961	-0.043084506
240	0x15458d00	3.9895063e-26
241	0xbd08058f	-0.033208426
242	0x3cff383e	0.031154748
243	0x3cb75861	0.02238101
244	0x80bfa9b4	-1.7601458e-38
245	0xbab3c011	-0.0013713856
246	0xbd6017d7	-0.054710235
247	0xbdde512b	-0.10855325
248	0x3d3412d7	0.04396328
249	0x041179bd	1.7100568e-36
250	0xbd57f684	-0.05272533
251	0x2f25d6c8	1.5082968e-10
252	0xbd24e69f	-0.040259
253	0x3bc4abe9	0.0060019386
254	0x3bde54a4	0.0067849923
255	0x00962a36	1.3790467e-38

net.6.bias f4 [64]
0	0xbdc74dda	-0.09731646
1	0x3cd76b8f	0.026296405
2	0xbd12712c	-0.03575246
3	0xb7035a08	-7.8291705e-06
4	0x3d17851a	0.03699217
5	0xbcbde1db	-0.023178985
6	0xbd9e7098	-0.07736319
7	0x3d9252d9	0.07144708
8	0x3d9bca8b	0.076069914
9	0xbd138020	-0.03601086
10	0x3dab163e	0.08353852
11	0x3dcdb103	0.10043528
12	0x3ba9ff6e	0.0051879203
13	0xbb283645	-0.0025667113
14	0x3e50b54f	0.20381664
15	0xb7362fdc	-1.08591885e-05
16	0x3dabd4a9	0.08390171
17	0xbce32feb	-0.02773281
18	0xb9b6beed	-0.00034855996
19	0x3e1aabe9	0.15104641
20	0xbd748d99	-0.05970535
21	0xbd37d743	-0.044883024
22	0xbc4febeb	-0.012690525
23	0x3d9f04cc	0.07764587
24	0xbc881ec9	-0.016616242
25	0x3e0c2419	0.13685645
26	0x3d36a2ad	0.044588733
27	0x3abe65b3	0.0014526158
28	0x3c8964e9	0.01677175
29	0x3dbe8e5c	0.09304497
30	0xbd2d49e4	-0.042306796
31	0xbdb22472	-0.08698358
32	0xb423629d	-1.5216433e-07
33	0xbca1bd58	-0.019743606
34	0x3e008163	0.12549357
35	0x3dde1036	0.10842936
36	0x3bc727ae	0.0060777282
37	0x3b61de4d	0.0034464777
38	0xbcd31135	-0.02576504
39	0x3d7d8cf0	0.061901987
40	0xbdc69110	-0.09695637
41	0x3de70893	0.11280932
42	0x3dead878	0.114670694
43	0x3d340834	0.043953136
44	0x3de9da45	0.11418585
45	0x3cfff853	0.03124634
46	0xbd971786	-0.073775336
47	0x3d5d1dd8	0.05398354
48	0xbd81fa6e	-0.06346594
49	0x3dda9ff6	0.106750414
50	0x3da52d84	0.08065322
51	0x3d97fe4c	0.0742155
52	0xbd1ba561	-0.037999514
53	0x3cbf8fe1	0.023384036
54	0x3d8d71b3	0.06906452
55	0xbd3434b7	-0.043995585
56	0xbda579de	-0.08079885
57	0x3dce10ab	0.10061773
58	0x3ddec298	0.108769596
59	0x3dc7d342	0.09757091
60	0x3bf5021a	0.007477057
61	0xbd59cbbf	-0.053172823
62	0x3d6ed783	0.058310997
63	0xbd1b6da3	-0.037946355

net.8.weight f4 [1, 64]
0	0xbd98e70f	-0.07465946
1	0x3d031408	0.032001525
2	0x3a11adcc	0.0005557209
3	0x3a9b5e26	0.001185362
4	0xbe097553	-0.13423662
5	0x3dbc0bb6	0.09181921
6	0xbe2f02eb	-0.17090957
7	0xbdd6d659	-0.10490102
8	0xbdce9c76	-0.10088436
9	0xb9416f42	-0.00018447361
10	0x3e2788ec	0.16360825
11	0x3e016879	0.1263751
12	0xbd80a358	-0.06281155
13	0xbc4b79ad	-0.0124191465
14	0x3e290401	0.16505434
15	0x3dac0203	0.08398821
16	0xbd8409e9	-0.06447203
17	0xbc6b081c	-0.014345195
18	0xb81d599d	-3.7515176e-05
19	0x3de29b8d	0.11064825
20	0x3b16d097	0.0023012513
21	0x3bdd2cea	0.006749739
22	0xba1bed9e	-0.00059481885
23	0xbdc86669	-0.09785158
24	0x3deb2f6e	0.11483656
25	0x3df5f0e9	0.120088406
26	0x3dc307ce	0.09522973
27	0xbddd3a8f	-0.10802185
28	0xbd514b2d	-0.051097084
29	0x3db964b5	0.090524115
30	0x3c8585b5	0.016299108
31	0x3d10c3c1	0.035342935
32	0x3afae440	0.001914151
33	0xbbcf6136	-0.006328727
34	0x3d999d83	0.07500746
35	0xbd573f30	-0.052550495
36	0x3c2e597b	0.010641451
37	0x3ce36d3b	0.027762046
38	0xbcc8af05	-0.024497518
39	0x3d77b2b9	0.060473178
40	0xbdad7721	-0.08469988
41	0x3ddd9c5a	0.10820837
42	0x3df056a6	0.11735277
43	0x3d155e02	0.036466606
44	0x3e01127c	0.12604707
45	0x3e006697	0.12539135
46	0x3d3e49dc	0.046457157
47	0xbd12d065	-0.03584327
48	0x3dcba7a8	0.09944087
49	0x3db619ad	0.08891616
50	0xbcbca46e	-0.023027625
51	0xbdabd577	-0.083903246
52	0x3b105fcf	0.0022029763
53	0x3b86a7d4	0.004109362
54	0x3dea62e5	0.11444644
55	0xbd929ca2	-0.071587816
56	0xbc431d2c	-0.011908811
57	0x3e08cced	0.13359423
58	0xbdfc68ca	-0.123246744
59	0xbcd7d8df	-0.02634853
60	0xb9e72fdb	-0.00044095409
61	0xbd5732d6	-0.052538715
62	0xbd8f86ce	-0.07008134
63	0x3d066e61	0.03282011
