HW12_RAG/lora_20vt_lr0.03_ep10_bs8/adapter_model.safetensors (safetensors, 82040 bytes, 1 tensors)

prompt_embeddings f4 [20, 1024]
000000 e0 40 3d be c8 ab 45 be d1 97 1c 3e 41 0e 3c be
       -0.18481779 -0.1930381 0.15292288 -0.18364812
000010 3f 78 06 be c6 d1 df 3b ab 63 88 3e 4e d8 f4 bd
       -0.13131808 0.006830427 0.2663854 -0.11955319
000020 4c bd 82 3e 82 99 5b be 2e bc 99 bd cd 0f 3e be
       0.25535047 -0.21445277 -0.075065956 -0.18560715
000030 bf 56 30 3e 4a fa da 3d 7a 95 25 be a3 bc 8c bd
       0.17220591 0.1069227 -0.16170302 -0.06871917
000040 45 34 e0 bc 1c 02 4b be 9a 29 3f 3e 70 33 5e 3e
       -0.027368674 -0.19825023 0.18668213 0.2169931
000050 e0 01 78 3e cd bb 2e be e5 18 3f bd cb 73 64 be
       0.24219465 -0.17063828 -0.0466546 -0.22309797
000060 a5 af b7 3d a3 ce b4 3d 33 68 9d bd 3f f9 f5 3d
       0.089690484 0.08828475 -0.0768589 0.120104305
000070 84 7a 3c ba aa 4c 76 bd d2 30 ce bd 05 3f 9b bd
       -0.0007189887 -0.060131706 -0.100679055 -0.075803794
000080 d8 4f 98 bd 00 78 d7 bd 5d 67 df bd f5 00 e8 3b
       -0.07437104 -0.10520935 -0.10908387 0.007080192
000090 b9 70 af 3d 4c 73 c0 3d 1f ea fd bd 2b bd fe 3d
       0.08566422 0.09396991 -0.12398171 0.12438425
0000a0 90 dc 40 3e f7 94 e2 bd 92 0e 11 bc 7d 58 3d be
       0.18834138 -0.11063569 -0.0088535715 -0.18490787
0000b0 53 74 2a 3e 83 a7 30 3e 88 51 52 be f3 c9 98 3d
       0.16645937 0.172514 -0.20538914 0.07460394
0000c0 a1 b1 c3 bd ad cf a9 bd 0b 37 29 be 5d e2 db 3d
       -0.095553644 -0.08291564 -0.16524903 0.10736535
0000d0 45 53 2d be d7 0f 84 3d 0c ab 3c 3e 34 0a 2c 3e
       -0.16926296 0.06448334 0.18424624 0.16800767
0000e0 3d 1c a6 3c 62 4c 5e 3d 6f e3 81 be 16 2c 46 be
       0.020277137 0.054272063 -0.2536883 -0.19352755
0000f0 f9 ef 28 be 8f dc d1 bd eb 59 2d be e3 0f f6 bd
       -0.16497792 -0.10247146 -0.16928832 -0.12014749
000100 8e db 5f 3e 0d 4d 51 bc 60 1b 85 bd 9e ac fa bd
       0.21861097 -0.012774718 -0.06499362 -0.12239955
000110 6d ec 95 3e 57 b6 37 be d6 96 5e be 75 a6 e5 bd
       0.2928194 -0.17940651 -0.21737227 -0.1121339
000120 02 b8 9b 3d 16 87 51 be 4f 59 47 3e 8b 0e 8d bc
       0.07603456 -0.20461687 0.19467662 -0.017218849
000130 a2 b6 13 3e f8 a9 ea bb 95 48 de bd a8 e1 2d 3b
       0.14425138 -0.007161375 -0.10853688 0.0026532207
000140 98 2e 3b 3e 81 14 30 3e 52 1e 94 3d 67 48 4d be
       0.18279493 0.17195322 0.07232346 -0.2004715
000150 67 8a 53 bd 67 e8 88 bd 58 a4 5e bd bc c2 38 3e
       -0.051645663 -0.06684952 -0.05435595 0.18043035
000160 2a 9d ce 3d 0e e1 40 be 82 13 18 3e 24 96 88 be
       0.100885704 -0.18835852 0.14851192 -0.26677048
000170 34 61 41 bd b9 20 36 3e 3e 67 2e 3e ef 94 09 3e
       -0.04721184 0.1778592 0.17031571 0.1343572
000180 7d 16 02 3e 1e 69 83 bd 0d 6f 51 be 35 36 c6 bd
       0.12703891 -0.06416534 -0.20452519 -0.09678308
000190 53 01 a1 bd 33 0c f1 3d ff 1f 2d 3e f9 ae c3 bd
       -0.07861581 0.11769905 0.16906737 -0.09554858
0001a0 4f c7 b8 3d fd eb 5b bd 59 bd bb 3d 79 8c 3e 3e
       0.0902239 -0.053691853 0.091669746 0.18608274
0001b0 b2 0f b2 bd 71 d4 a8 3d 91 c8 37 3e 54 27 44 3e
       -0.086944 0.08243645 0.17947604 0.19155627
0001c0 e2 fb 7f be b5 d2 e4 bd b4 02 44 be 01 f8 8f be
       -0.2499843 -0.11173002 -0.19141656 -0.281189
0001d0 89 fa e0 bd 7d c6 f0 3b a5 84 4f 3e ab e8 99 ba
       -0.10985286 0.0073478804 0.20265444 -0.0011742314
0001e0 54 21 93 3d 9b 88 7b be d6 b3 d9 bd e0 da 48 be
       0.07184091 -0.2456383 -0.10630004 -0.19614744
0001f0 2b 0a 1d 3d 2a 07 a5 bd d2 93 cf bd 76 a4 bd bd
       0.038339775 -0.08058007 -0.10135616 -0.09259884
000200 23 b9 21 3c 72 96 93 bd 8a 47 64 3e bc d0 3b be
       0.0098708 -0.072064295 0.22292915 -0.18341345
000210 c4 5f 6b 3e 2f 6e 36 3e 34 a2 63 3e b4 f5 34 3e
       0.2298575 0.17815469 0.22229844 0.17671853
000220 cc 08 17 3e 88 8b 99 bd 58 d3 49 3e ce b6 d4 3d
       0.1474945 -0.074973166 0.19709527 0.1038643
000230 a1 6f 4c 3e 9c a2 2d 3e 1c a4 44 be 77 dd 77 bd
       0.19964458 0.16956562 -0.19203228 -0.06051394
000240 28 e7 77 bd 71 28 b9 bd 69 41 45 3e d7 19 0e 3d
       -0.060523182 -0.09040917 0.19263233 0.03469261
000250 69 f4 09 bd 06 59 3b be c4 f3 c5 3d 94 15 ae 3d
       -0.033680353 -0.18295678 0.09665635 0.085002095
000260 85 03 3c be 57 c8 38 3e 1b 60 e7 bd 36 de 45 be
       -0.18360718 0.18045174 -0.112976275 -0.19323048
000270 51 64 29 3d 7b 3b ae 3d 4c 02 34 be f0 d1 09 3e
       0.041355435 0.08507439 -0.17579001 0.13458991
000280 e5 ab ea 3d fc a0 47 be 1b 69 9c bd 78 0d 78 bd
       0.114585675 -0.19495004 -0.07637235 -0.06055972
000290 fd ca 36 bd bc 90 af bd d4 69 8e bd 70 75 3b be
       -0.04462718 -0.08572528 -0.06953779 -0.18306518
0002a0 d1 36 3e be 47 59 df bc 7d 22 31 be ec b0 53 be
       -0.18575598 -0.02726425 -0.17298312 -0.20672959
0002b0 1f bc 8e bd 76 0d 64 3e 4c a6 bf bd 7f bb e5 3d
       -0.06969475 0.2227076 -0.093578905 0.11217403
0002c0 76 2f 2d bd 61 07 ad 3d ca 9a f3 bd 16 e1 5d 3d
       -0.04228159 0.08448673 -0.11894758 0.054169737
0002d0 7b 97 98 3d 82 97 6f 3e 09 c2 0a be e8 e9 4c 3e
       0.074507676 0.2339764 -0.13550581 0.20011103
0002e0 dc 33 2d be 27 f7 d9 3d 0d 6c e5 3d eb a0 3b be
       -0.16914314 0.10642844 0.1120225 -0.18323104
0002f0 c1 45 a1 be d3 bd 36 be 62 c6 64 be 13 01 90 bd
       -0.3149853 -0.1784585 -0.22341302 -0.07031455
000300 72 40 76 3e 2c 6a 2d be 59 bc 29 be c2 15 44 be
       0.24048021 -0.16935033 -0.16575755 -0.19148925
000310 4b ab b4 bd 55 00 b3 3d 20 c2 1e 3e bf ec c4 bd
       -0.08821734 0.08740298 0.1550374 -0.09615468
000320 44 a5 a1 3d bd f3 8f be e7 4c 88 bd 84 bf cc bd
       0.0789285 -0.28115645 -0.06655293 -0.09997466
000330 20 72 4d 3e 97 79 67 3e d8 36 26 3d e8 99 de bd
       0.20063066 0.22604977 0.040579647 -0.10869199
000340 99 b6 ba 3d 2a 25 fb bd 7e cc 5b 3e 0c 72 bf bd
       0.09116859 -0.12262948 0.21464726 -0.093479246
000350 86 1e 34 3e 76 ba 16 be 79 3e 32 be f4 02 4a be
       0.17589769 -0.14719567 -0.17406644 -0.19727689
000360 dd 62 01 be 7e 85 83 be 2b df d6 bd 77 78 c3 bd
       -0.1263537 -0.25687784 -0.10491785 -0.09544461
000370 87 2e ee 3d 34 b6 a1 3c ce 17 d4 3d 81 53 32 3e
       0.11629968 0.019740202 0.10356103 0.17414667
000380 9d 84 33 3e db b3 fb 3d b8 13 81 bd 6e 14 1f 3e
       0.17531057 0.12290164 -0.06302589 0.15535137
000390 e1 f9 39 be a4 4f 54 3e 84 92 c1 bd 2c 50 53 be
       -0.18161727 0.20733505 -0.09451774 -0.20636052
0003a0 36 ad 23 be 10 36 de 3d 6f 93 f9 bd 15 a8 38 3e
       -0.15984043 0.10850155 -0.12186324 0.18032868
0003b0 6f 42 8d bd 81 dd 41 3e c4 a8 bb 3d 68 e1 c3 3d
       -0.06897437 0.18932153 0.09163049 0.09564477
0003c0 51 55 ad bd ed dc 5f 3d a4 56 2d be a3 16 44 bd
       -0.084635384 0.05465405 -0.16927582 -0.04787315
0003d0 ba b5 34 3e 13 53 f0 3d 18 d6 ca 3d 96 c4 d5 3d
       0.17647448 0.11734595 0.099041164 0.104378864
0003e0 a7 fe 64 be be d2 39 be 6e d2 f0 3d 24 09 91 3e
       -0.22362767 -0.18146798 0.11758886 0.28327286
0003f0 32 aa a0 bd e5 79 df 3d 5c 9e 4c be 66 18 07 3e
       -0.07844962 0.109119214 -0.19982284 0.13192901
